pretrained_models/MEGNet-MP-2019.4.1-BandGap-mfi/state.pt (torch, 800529 bytes, 106 tensors)

model.bond_expansion.rbf.centers f4 [100]
0.0 0.06060606 0.12121212 0.18181819 0.24242423 0.3030303 0.36363637 0.4242424
0.48484847 0.54545456 0.6060606 0.6666667 0.72727275 0.7878788 0.8484849 0.90909094
0.969697 1.030303 1.0909091 1.1515151 1.2121212 1.2727273 1.3333334 1.3939394
1.4545455 1.5151515 1.5757576 1.6363636 1.6969697 1.7575758 1.8181819 1.8787879
1.939394 2.0 2.060606 2.121212 2.1818182 2.2424242 2.3030303 2.3636363
2.4242425 2.4848485 2.5454545 2.6060605 2.6666667 2.7272727 2.7878788 2.8484848
2.909091 2.969697 3.030303 3.090909 3.1515152 3.2121212 3.2727273 3.3333333
3.3939395 3.4545455 3.5151515 3.5757575 3.6363637 3.6969697 3.7575758 3.8181818
3.878788 3.939394 4.0 4.060606 4.121212 4.181818 4.242424 4.3030305
4.3636365 4.4242425 4.4848485 4.5454545 4.6060605 4.6666665 4.7272725 4.787879
4.848485 4.909091 4.969697 5.030303 5.090909 5.151515 5.212121 5.2727275
5.3333335 5.3939395 5.4545455 5.5151515 5.5757575 5.6363635 5.6969695 5.757576
5.818182 5.878788 5.939394 6.0
00000000: 0000 0000 0f3e 783d 0f3e f83d 8c2e 3a3e
00000010: 0f3e 783e ca26 9b3e 8c2e ba3e 4d36 d93e
00000020: 0f3e f83e e9a2 0b3f ca26 1b3f abaa 2a3f
00000030: 8c2e 3a3f 6db2 493f 4e36 593f 2fba 683f
00000040: 103e 783f f8e0 833f e9a2 8b3f d964 933f
00000050: ca26 9b3f bae8 a23f abaa aa3f 9b6c b23f
00000060: 8c2e ba3f 7cf0 c13f 6db2 c93f 5d74 d13f
00000070: 4e36 d93f 3ef8 e03f 2fba e83f 1f7c f03f
00000080: 103e f83f 0000 0040 f8e0 0340 f0c1 0740
00000090: e9a2 0b40 e183 0f40 d964 1340 d145 1740
000000a0: ca26 1b40 c207 1f40 bae8 2240 b2c9 2640
000000b0: abaa 2a40 a38b 2e40 9b6c 3240 934d 3640
000000c0: 8c2e 3a40 840f 3e40 7cf0 4140 74d1 4540
000000d0: 6db2 4940 6593 4d40 5d74 5140 5555 5540
000000e0: 4e36 5940 4617 5d40 3ef8 6040 36d9 6440
000000f0: 2fba 6840 279b 6c40 1f7c 7040 175d 7440
00000100: 103e 7840 081f 7c40 0000 8040 7cf0 8140
00000110: f8e0 8340 74d1 8540 f0c1 8740 6db2 8940
00000120: e9a2 8b40 6593 8d40 e183 8f40 5d74 9140
00000130: d964 9340 5555 9540 d145 9740 4e36 9940
00000140: ca26 9b40 4617 9d40 c207 9f40 3ef8 a040
00000150: bae8 a240 36d9 a440 b2c9 a640 2fba a840
00000160: abaa aa40 279b ac40 a38b ae40 1f7c b040
00000170: 9b6c b240 175d b440 934d b640 103e b840
00000180: 8c2e ba40 081f bc40 840f be40 0000 c040

model.embedding.layer_state_embedding.weight f4 [4, 16]
0.012797702 -0.10587526 -0.036985397 0.19039036 0.0006632581 0.02950583 0.12912202 -0.05759542
0.18336077 -0.08483852 -0.05187791 -0.041873056 -0.08477171 -0.047571078 -0.2039987 0.054996327
0.31853974 0.30137232 -0.3941877 -0.38744116 0.33368134 -0.21589476 -0.38889366 0.19601892
-0.401123 0.22514072 0.12745927 0.12623633 0.19081898 0.33124107 0.40871802 -0.34596854
-0.100516245 0.14547111 0.2564134 -0.21170881 -0.3245978 -0.05917555 -0.1694399 0.021105977
-0.24067356 0.15946355 0.12894744 0.08823276 0.19397636 -0.18854594 0.2807711 0.22576787
-0.6874918 0.10166111 0.49360007 -0.30599132 0.4627467 0.35853156 -0.25754488 0.3570023
0.23517871 0.045081053 -0.058379095 0.01856471 -0.06011424 0.3788816 -0.19960742 -0.3910528
00000000: 74ad 513c 21d5 d8bd 007e 17bd b1f5 423e
00000010: 7fde 2d3a 36b6 f13c 9038 043e 2de9 6bbd
00000020: edc2 3b3e d1bf adbd ee7d 54bd 1583 2bbd
00000030: ca9c adbd e4d9 42bd 09e5 50be d443 613d
00000040: a417 a33e 794d 9a3e f8d2 c9be b05e c6be
00000050: 48d8 aa3e 8413 5dbe 121d c7be 2fb9 483e
00000060: fe5f cdbe 4a8b 663e af84 023e 1944 013e
00000070: 0d66 433e 6e98 a93e 7d43 d13e ca22 b1be
00000080: 76db cdbd 61f6 143e 9e48 833e 32ca 58be
00000090: af31 a6be 1062 72bd a781 2dbe 71e6 ac3c
000000a0: 2173 76be 6a4a 233e cc0a 043e 61b3 b43d
000000b0: bda1 463e 3012 41be 3bc1 8f3e b12f 673e
000000c0: 76ff 2fbf b333 d03d 26b9 fc3e e5aa 9cbe
000000d0: 23ed ec3e 7391 b73e ecdc 83be 01c9 b63e
000000e0: b0d2 703e e9a6 383d eb1e 6fbd 0515 983c
000000f0: 593a 76bd c5fc c13e e365 4cbe 1338 c8be

model.embedding.layer_node_embedding.weight f4 [89, 16]
0.06977117 -0.1626237 -0.11364068 0.079499856 -0.024702517 0.11799481 0.100527115 -0.104448676
-0.04142026 -0.08995404 -0.019233018 -0.15482017 -0.13409343 -0.1588021 0.24649371 -0.08323107
0.15334406 -0.46980804 -0.062392514 -0.039834276 0.20181695 0.75778276 0.15966874 -0.3315328
0.19608593 -0.2292927 -0.3760861 -0.36400598 -0.51753706 -0.49375454 0.635663 -0.25440326
0.16625044 -0.07574341 -0.09454282 0.15340137 0.2019938 0.02871799 0.006695877 -0.008713581
-0.1025128 -0.14250846 0.12357332 -0.17660013 -0.13337599 -0.2440046 0.21057944 0.008831734
0.16605675 -0.13262506 0.0038051468 0.075531065 0.25117475 0.045944445 -0.053199384 -0.031389713
0.028960744 -0.0801656 -0.02321553 -0.27210373 -0.11733415 -0.3326312 0.3207619 0.04380378
0.043581422 -0.12952921 -0.018014055 0.0221936 0.09748827 -0.036648262 -0.018348597 -0.08561784
0.106552094 -0.008965854 -0.15409394 -0.16943167 -0.030761546 -0.15822223 0.26049054 -0.0029979025
-0.020706674 0.0032294395 0.11733121 -0.08725328 0.03069286 0.15611859 -0.031060176 0.043903694
0.0077308165 -0.0044994755 0.0612118 0.02118546 -0.06153304 -0.006393889 -0.005081603 0.011255345
0.023604421 0.11469649 -0.26115265 0.13307 -0.101809084 -0.08571268 0.13148898 0.05637022
-0.30800632 -0.043104477 0.28066522 0.05556795 0.06080963 0.08132285 -0.13024484 -0.052948344
0.13766873 -0.02874484 -0.2794421 0.22417368 0.017724866 -0.048927438 0.14629994 -0.028916147
-0.2755112 -0.12453312 0.1904539 -0.13079016 -0.057380542 -0.10941668 0.0669939 -0.06104046
0.13436331 -0.25906444 -0.50930834 0.19102705 -0.13562416 0.17023998 0.32389298 -0.26354203
-0.20596617 -0.21646123 -0.09390699 -0.29376647 -0.26589885 -0.32163477 0.31362203 -0.2687152
0.11095238 -0.27618676 -0.08547694 0.03273211 0.019440698 0.2524598 0.08321283 -0.18612787
0.030360522 -0.13290192 -0.14084151 -0.35267973 -0.24047916 -0.32566294 0.3941479 -0.1150624
0.051024456 -0.09074046 -0.07287259 0.064678654 -0.014003633 0.010155237 0.051193334 -0.06643583
-0.031108947 -0.05096691 -0.0016852715 -0.09859791 -0.056824826 -0.084169485 0.11770757 -0.051199213
0.08731303 -0.04934399 -0.029107915 0.066357315 0.04856699 -0.048853476 -0.0027651011 -0.031661257
0.0068292827 -0.045372613 -0.03966143 -0.11238585 -0.031714782 -0.1309773 0.09166776 0.0027197355
0.07689766 -0.046423685 0.05716448 -0.01120308 0.18297508 0.12870508 -0.053959887 0.025003642
0.030550424 -0.040299654 0.011089987 -0.106496416 -0.093611196 -0.15538803 0.104563735 0.047444504
-0.019686418 -0.13914981 0.046307538 -0.05046394 0.010551128 0.050080486 -0.014944693 -0.09132943
0.099152714 0.02052962 -0.118975274 -0.03630646 -0.051648695 -0.03916351 0.11675792 -0.015032805
-0.048390955 -0.066713184 -0.026826248 -0.038272373 -0.0998918 0.0402228 0.06349669 -0.08196659
0.025210042 0.019340167 -0.080941044 0.027906705 -0.009341625 0.043561816 0.01864361 -0.078558676
-0.101158336 -0.10537817 -0.13757628 -0.059351165 -0.28177428 0.17634845 0.20929994 -0.12600182
-0.049813427 -0.00796913 -0.038598932 0.082060575 -0.08088423 0.12468937 0.035686858 -0.18269162
00000000: 30e4 8e3d d486 26be 72bc e8bd d2d0 a23d
00000010: ef5c cabc 43a7 f13d 29e1 cd3d 30e9 d5bd
00000020: 4aa8 29bd d339 b8bd 908e 9dbc 2e89 1ebe
00000030: ca4f 09be 059d 22be d968 7c3e 0d75 aabd
00000040: 3a06 1d3e ae8a f0be 4b8f 7fbd 4429 23bd
00000050: 1aa9 4e3e 0dfe 413f 3480 233e abbe a9be
00000060: c0ca 483e b5cb 6abe 5b8e c0be fe5e babe
00000070: 4f7d 04bf 65cd fcbe cfba 223f 2541 82be
00000080: 8e3d 2a3e 5c1f 9bbd aa9f c1bd 4015 1d3e
00000090: 76d7 4e3e fd41 eb3c 1669 db3b 68c3 0ebc
000000a0: 3bf2 d1bd bded 11be 0214 fd3d aad6 34be
000000b0: b793 08be 58dc 79be 23a2 573e fab2 103c
000000c0: c80a 2a3e ddce 07be c55f 793b 08b0 9a3d
000000d0: fa99 803e 3e30 3c3d 99e7 59bd 8092 00bd
000000e0: 153f ed3c dd2d a4bd 7f2e bebc 2e51 8bbe
000000f0: e34c f0bd a34e aabe e73a a43e 986b 333d
00000100: 6f82 323d 4ea3 04be 3692 93bc 5acf b53c
00000110: eea7 c73d 7d1c 16bd cc4f 96bc 6858 afbd
00000120: fc37 da3d 84e5 12bc cdca 1dbe 7f7f 2dbe
00000130: a3ff fbbc 0205 22be 045f 853e 7578 44bb
00000140: 0ba1 a9bc 01a5 533b 584b f03d d9b1 b2bd
00000150: 986f fb3c 8ddd 1f3e e971 febc 5cd4 333d
00000160: ca52 fd3b 5670 93bb 39b9 7a3d 218d ad3c
00000170: 120a 7cbd d483 d1bb 9383 a6bb 5768 383c
00000180: 0f5e c13c fee5 ea3d cdb5 85be 8143 083e
00000190: 4881 d0bd 218a afbd 0ca5 063e 76e4 663d
000001a0: 01b3 9dbe 528e 30bd 5ab3 8f3e 389b 633d
000001b0: 8513 793d 988c a63d e75e 05be 5de0 58bd
000001c0: 08f9 0c3e 4c7a ebbc 0913 8fbe c98d 653e
000001d0: bd33 913c 2368 48bd a7cf 153e 8ee1 ecbc
000001e0: ce0f 8dbe 380b ffbd 5906 433e dbed 05be
000001f0: dc07 6bbd da15 e0bd 1934 893d 9005 7abd
00000200: 8996 093e 18a4 84be 0862 02bf 989c 433e
00000210: 0fe1 0abe 6453 2e3e 4dd5 a53e fbee 86be
00000220: cce8 52be 03a8 5dbe 4f52 c0bd 8f68 96be
00000230: e523 88be 50ad a4be 1193 a03e 0a95 89be
00000240: 003b e33d 5a68 8dbe 890e afbd 1b12 063d
00000250: 1942 9f3c 6942 813e 7d6b aa3d 4e98 3ebe
00000260: a1b6 f83c 7117 08be c238 10be 7092 b4be
00000270: 2b40 76be 4bbd a6be c1cd c93e d6a5 ebbd
00000280: 05ff 503d 22d6 b9bd 393e 95bd 3e76 843d
00000290: 7e6f 65bc 2762 263c 1ab0 513d 820f 88bd
000002a0: 31d8 febc aec2 50bd 54e4 dcba b3ed c9bd
000002b0: 26c1 68bd 0d61 acbd ab10 f13d 44b6 51bd
000002c0: 2dd1 b23d ec1c 4abd b973 eebc 58e6 873d
000002d0: 2eee 463d 951a 48bd b336 35bb 3caf 01bd
000002e0: 2dc8 df3b a2d8 39bd 0674 22bd 8d2a e6bd
000002f0: 5ce7 01bd ea1e 06be 4ebc bb3d 973d 323b
00000300: 857c 9d3d c326 3ebd 4d25 6a3d 208d 37bc
00000310: d25d 3b3e 44cb 033e 0b05 5dbd 70d4 cc3c
00000320: e244 fa3c 4011 25bd c7b2 353c cb1a dabd
00000330: 3ab7 bfbd 0a1e 1fbe 8325 d63d 2b55 423d
00000340: 6945 a1bc 4a7d 0ebe f9ac 3d3d 47b3 4ebd
00000350: a3de 2c3c 3221 4d3d 96da 74bc ed0a bbbd
00000360: 9410 cb3d bc2d a83c 4fa9 f3bd 15b6 14bd
00000370: 958d 53bd eb69 20bd c71e ef3d 274c 76bc
00000380: 9835 46bd eca0 88bd b8c2 dbbc 7ec3 1cbd
00000390: 1294 ccbd aac0 243d 8d0a 823d 19de a7bd
000003a0: 4a85 ce3c 456f 9e3c 6bc4 a5bd 9a9c e43c
000003b0: 9d0d 19bc e06d 323d 7cba 983c 5fe3 a0bd
000003c0: 1a2c cfbd 83d0 d7bd cce0 0cbe 351a 73bd
000003d0: b844 90be b094 343e b952 563e 9f06 01be
000003e0: 2a09 4cbd f490 02bc ea19 1ebd 600f a83d
000003f0: a2a6 a5bd 245d ff3d 622c 123d 8313 3bbe

model.edge_encoder.layers.0.weight f4 [64, 100]
-0.033271197 -0.03210182 -0.030887447 -0.02939318 -0.028215393 -0.026721064 -0.025323655 -0.023964085
-0.022533018 -0.021275356 -0.019808304 -0.018739242 -0.017095111 -0.015877135 -0.014616814 -0.013045252
-0.012049758 -0.010442955 -0.009204357 -0.008120992 -0.006918012 -0.0058404533 -0.0044276835 -0.0033838735
-0.002074268 -0.00076059427 5.6063167e-05 0.0013255322 0.0020756947 0.003297311 0.0043528774 0.0050315787
0.0060840435 0.006894617 0.0072211428 0.007909299 0.00867582 0.009295668 0.0093842 0.009566256
0.009804281 0.009859667 0.010020774 0.009770165 0.00933634 0.008879044 0.007944397 0.0070560593
0.0064017214 0.0050602104 0.0039550755 0.0028611622 0.0014734237 -5.3622745e-05 -0.0017524224 -0.0035800321
-0.0048621795 -0.006591943 -0.007967728 -0.009333808 -0.01028359 -0.011431001 -0.0120219495 -0.012621347
-0.013220665 -0.013066699 -0.013151179 -0.013327796 -0.013091154 -0.012513792 -0.011742647 -0.011096867
-0.010288354 -0.009307194 -0.008134242 -0.0068151327 -0.005495742 -0.0038386614 -0.0021770045 -0.0006256549
0.001290627 0.0029080862 0.005084528 0.0072229854 0.009174374 0.011086482 0.013426626 0.015661316
0.017748838 0.019905169 0.022153193 0.024744881 0.026931059 0.029246531 0.031526476 0.033871304
0.036343317 0.038285606 0.04058223 0.0431686 0.1165328 0.11459351 0.113058776 0.11144095
0.10920209 0.107642755 0.10555048 0.10363215 0.1019435 0.09972024 0.09779584 0.09529556
0.09352041 0.090857595 0.088679984 0.086436294 0.08409897 0.081656024 0.07921914 0.07685123
0.07442098 0.07168383 0.069065936 0.066529 0.063706465 0.06093269 0.058021363 0.05512613
0.0521382 0.049163204 0.04609774 0.04254764 0.039458178 0.03627179 0.03288429 0.029079963
0.025751071 0.021952856 0.018010056 0.014167287 0.010520815 0.006261119 0.0021416391 -0.002129977
-0.0065852446 -0.010657057 -0.015441767 -0.020266285 -0.024997318 -0.029673936 -0.034741953 -0.039507277
-0.04500792 -0.050114147 -0.05569016 -0.061108056 -0.066740535 -0.072145894 -0.077812 -0.08365889
-0.08967311 -0.095099404 -0.10085849 -0.10577739 -0.11019902 -0.1062648 -0.10252465 -0.097825564
-0.09337136 -0.0881164 -0.08294478 -0.078247674 -0.073001124 -0.067908496 -0.06315527 -0.058271583
-0.053289536 -0.04892819 -0.044294275 -0.04029328 -0.036220625 -0.03264388 -0.029111166 -0.025786676
-0.022721736 -0.020240637 -0.017428517 -0.01513408 -0.013255768 -0.011366144 -0.009571261 -0.00823361
-0.006775824 -0.0058343452 -0.0046490473 -0.003624015 -0.0029994643 -0.002215451 -0.0016199773 -0.0012219524
0.25114417 0.24025682 0.229598 0.21878982 0.20797314 0.19731951 0.18683027 0.1762757
0.16580757 0.15519957 0.14437102 0.133671 0.12234974 0.11148307 0.100465134 0.089152776
0.07815547 0.06691291 0.055836968 0.04371209 0.032049987 0.0202311 0.008937034 -0.002740152
-0.013492003 -0.02364849 -0.033440776 -0.04287883 -0.051615804 -0.060084175 -0.067666374 -0.07484417
-0.081751585 -0.08822448 -0.093715556 -0.09865148 -0.10316734 -0.10726052 -0.110637255 -0.11372146
-0.11609356 -0.11800225 -0.119279474 -0.12020922 -0.12048181 -0.1202086 -0.11967474 -0.118670635
-0.116359085 -0.113926604 -0.11048174 -0.10709748 -0.10274902 -0.09853719 -0.09313634 -0.08794994
00000000: 6147 08bd 337d 03bd ac07 fdbc f7c9 f0bc
00000010: f823 e7bc 22e6 dabc 8e73 cfbc 5450 c4bc
00000020: 2a97 b8bc a849 aebc 0645 a2bc 0a83 99bc
00000030: 0c0b 8cbc c410 82bc 5d7b 6fbc c1bb 55bc
00000040: 596c 45bc ee18 2bbc dfcd 16bc e90d 05bc
00000050: 7eb0 e2bb 4661 bfbb 1a16 91bb fac3 5dbb
00000060: 71f0 07bb 9e62 47ba 5e25 6b38 7bbd ad3a
00000070: 6108 083b b317 583b 95a2 8e3b f1df a43b
00000080: a85c c73b 3dec e13b 569f ec3b 0196 013c
00000090: 0725 0e3c dc4c 183c 30c0 193c c9bb 1c3c
000000a0: 23a2 203c 718a 213c 2c2e 243c 0b13 203c
000000b0: 73f7 183c 6979 113c 3729 023c 8436 e73b
000000c0: 88c5 d13b 1fd0 a53b 9499 813b 5682 3b3b
000000d0: e51f c13a fce8 60b8 8ab1 e5ba f99e 6abb
000000e0: eb52 9fbb 3a01 d8bb 138b 02bc d4ec 18bc
000000f0: 817c 28bc 1849 3bbc b6f7 44bc c4c9 4ebc
00000100: 7d9b 58bc b515 56bc 0b78 57bc d45c 5abc
00000110: 487c 56bc a606 4dbc 3b64 40bc a2cf 35bc
00000120: 7c90 28bc 337d 18bc 7c45 05bc 7a51 dfbb
00000130: a015 b4bb 0d92 7bbb 13ac 0ebb fd02 24ba
00000140: 422a a93a 9795 3e3b 1d9c a63b cbae ec3b
00000150: 1d50 163c 13a4 353c 5afb 5b3c 294c 803c
00000160: 0366 913c 2a10 a33c 9d7a b53c c7b5 ca3c
00000170: 869e dc3c 6c96 ef3c e821 013d a3bc 0a3d
00000180: bbdc 143d 5ed1 1c3d 8d39 263d 8fd1 303d
00000190: c0a8 ee3d 01b0 ea3d 5c8b e73d 273b e43d
000001a0: 58a5 df3d ce73 dc3d da2a d83d 183d d43d
000001b0: c1c7 d03d 203a cc3d 2f49 c83d 522a c33d
000001c0: a187 bf3d 8c13 ba3d da9d b53d 8305 b13d
000001d0: 153c ac3d 463b a73d a53d a23d 2d64 9d3d
000001e0: 076a 983d f9ce 923d 7172 8d3d 5b40 883d
000001f0: 8978 823d 8e94 793d cfa7 6d3d f0cb 613d
00000200: dd8e 553d 5b5f 493d fcd0 3c3d 6f46 2e3d
00000210: e69e 213d ba91 143d adb1 063d 1a39 ee3c
00000220: e9f3 d23c 7ad6 b33c d389 933c e91d 683c
00000230: 7f5f 2c3c 132a cd3b be5a 0c3b 1697 0bbb
00000240: 09c9 d7bb f09a 2ebc 77ff 7cbc 7b05 a6bc
00000250: 2dc7 ccbc c116 f3bc 944d 0ebd 62d2 21bd
00000260: 3a5a 38bd 7e44 4dbd 5d1b 64bd 714c 7abd
00000270: 43af 88bd 3ac1 93bd e65b 9fbd 5a55 abbd
00000280: 89a6 b7bd 7ac3 c2bd e58e cebd d1a1 d8bd
00000290: 06b0 e1bd 5ca1 d9bd 72f8 d1bd c558 c8bd
000002a0: 7c39 bfbd 5f76 b4bd f4de a9bd 5140 a0bd
000002b0: 9d81 95bd 9c13 8bbd 8d57 81bd 2fae 6ebd
000002c0: 2146 5abd ed68 48bd ea6d 35bd 910a 25bd
000002d0: 145c 14bd 97b5 05bd 8a7a eebc 943e d3bc
000002e0: ef22 babc b1cf a5bc 40c6 8ebc eff4 77bc
000002f0: b92e 59bc 1039 3abc c7d0 1cbc 43e6 06bc
00000300: bb07 debb 092e bfbb 0957 98bb e280 6dbb
00000310: a992 44bb 1a31 11bb 6b55 d4ba eb29 a0ba
00000320: f895 803e e205 763e bd1b 6b3e 700a 603e
00000330: e9f6 543e 200e 4a3e 6f50 3f3e 9e81 343e
00000340: 76c9 293e a3ec 1e3e ffd5 133e 0de1 083e
00000350: 8092 fa3d 3c51 e43d aac0 cd3d bb95 b63d
00000360: fa0f a03d a309 893d 4eb5 643d 730b 333d
00000370: d946 033d b1bb a53c a36c 123c 1f94 33bb
00000380: 900d 5dbc 7aba c1bc 32f9 08bd b6a1 2fbd
00000390: 186b 53bd d31a 76bd ab94 8abd e647 99bd
000003a0: 606d a7bd 09af b4bd f1ed bfbd ca09 cabd
000003b0: 6649 d3bd 67ab dbbd c995 e2bd cce6 e8bd
000003c0: 76c2 edbd 2aab f1bd cc48 f4bd 4030 f6bd
000003d0: 2bbf f6bd ed2f f6bd 0818 f5bd 9709 f3bd
000003e0: ac4d eebd 5a52 e9bd 4044 e2bd ec55 dbbd
000003f0: 146e d2bd decd c9bd 44be bebd 191f b4bd

model.edge_encoder.layers.0.bias f4 [64]
0.0007229012 0.027993923 0.029404525 0.00016081653 0.046186406 0.00017453641 -0.012298611 -2.216391e-06
-1.1589894e-05 0.0047896584 -3.414783e-05 0.041984115 0.004019079 0.016181692 0.0004339118 0.032612376
0.053482182 0.043492764 0.052879807 0.06268615 -0.008080799 0.00030691133 6.100059e-05 -0.0073831165
0.033831164 -2.1351892e-05 0.042779673 0.005720278 -0.005303881 -0.011531506 0.010058835 0.00073939207
0.008877445 0.018250795 0.075750835 0.03786366 0.014452687 -0.01542654 0.004883218 0.00081259635
0.034670256 0.054898754 0.0018576268 0.025312973 0.05016999 0.00041761692 0.035744686 -0.003287925
0.006071896 0.013819957 -0.016133036 0.06585409 -0.013719104 -0.0058703306 0.0007759239 0.039952893
0.031004863 0.040796958 0.054823242 0.04199963 0.02507184 0.08685414 0.010635725 0.0403105
00000000: 1481 3d3a 8353 e53c c2e1 f03c dca0 2839
00000010: f52d 3d3d c303 3739 1d80 49bc 4fbd 14b6
00000020: 3772 42b7 91f2 9c3b f439 0fb8 89f7 2b3d
00000030: 7ab2 833b 788f 843c a87e e339 8e94 053d
00000040: 2210 5b3d 7825 323d 7f98 583d 9961 803d
00000050: 5465 04bc f1e8 a039 e3da 7f38 12ee f1bb
00000060: 8c92 0a3d d71c b3b7 bd39 2f3d 2b71 bb3b
00000070: 2ecc adbb a4ee 3cbc d0cd 243c c3d3 413a
00000080: b472 113c b182 953c 4123 9b3d ed16 1b3d
00000090: f7ca 6c3c 99bf 7cbc 6703 a03b 6b04 553a
000000a0: 6602 0e3d 84dd 603d 9d7b f33a 275d cf3c
000000b0: 0c7f 4d3d 98f3 da39 0569 123d 3a7a 57bb
000000c0: c1f6 c63b 1a6d 623c 6e29 84bc 82de 863d
000000d0: 18c6 60bc e75b c0bb 5f67 4b3a a5a5 233d
000000e0: e9fd fd3c b61a 273d 568e 603d ce07 2c3d
000000f0: 7663 cd3c 95e0 b13d 7741 2e3c 9f1c 253d

model.edge_encoder.layers.2.weight f4 [32, 64]
0.00059597334 0.0064168284 -0.019806223 3.434443e-06 -0.2449114 -9.876115e-05 0.013998261 0.000269956
5.9694635e-06 -0.0038606469 0.011166919 -0.04623742 0.007619508 -0.0069610663 -0.00078172685 -0.020756787
-0.052694354 -0.052345976 -0.06784066 0.025900355 0.007231446 -0.0004992528 9.084395e-05 0.008222045
-0.034977857 0.00018234743 -0.051530957 -0.0011207957 0.0005294069 0.008099912 -0.007652045 -0.00038467502
0.006673771 -0.005980892 0.007546598 -0.05137817 0.008707545 0.0025279284 -0.0028629508 0.00078804523
-0.04234608 -0.05792811 -0.07552629 -0.004405329 -0.030923057 -0.0002790229 -0.052086215 0.02959277
-0.0077860733 0.009847237 0.008444971 0.0017527094 0.0017920583 -0.0067772768 0.00024450404 -0.07572464
-0.018738624 -0.03191941 -0.036406457 -0.014443782 0.006448075 -0.46100187 0.0033846316 -0.032850858
-0.004247158 -0.11156397 0.23385575 0.001487137 0.16336933 -0.00045060524 -0.23040079 -0.0018146976
-1.3459566e-05 0.009711214 -0.35133168 -0.04222383 -0.20218477 0.011861151 -0.0029670084 0.00762342
-0.03795422 -0.05014129 -0.03913056 -0.36536187 -0.28238377 0.0015664698 0.0013290796 -0.34808588
-0.09705841 0.00050556153 0.2403986 0.011562581 -0.022390047 -0.22140084 0.015673827 0.0018675181
-0.23157877 0.016785933 -0.17153172 -0.10019931 -0.014577913 -0.1495589 0.029458364 0.005180568
-0.09854426 0.37882343 0.23126557 -0.09550476 0.15402976 0.0016601273 -0.09826377 -0.28413653
-0.11596598 -0.28578594 -0.2512815 -0.21691543 -0.17560127 -0.16965066 0.0042742146 -0.09868882
0.19200858 0.30463055 0.25671425 0.1490329 -0.17559141 0.29351804 -0.2694048 -0.032050237
-0.0059674494 0.0005519664 0.24320585 0.0021849175 -0.0067527764 -0.0009850005 -0.029405275 -0.0002180708
-7.5466437e-06 0.017134793 -0.15359338 0.21265535 -0.07924943 0.1075868 -0.007595899 0.21517743
0.25714856 0.1960844 0.20919748 -0.13852851 -0.08562902 0.00347886 0.0025525384 -0.11345563
0.039091565 0.00089276436 0.25173688 0.029576361 -0.03146013 -0.086726315 0.041847236 0.0023455832
-0.088491134 0.14753863 -0.13818401 0.043782495 0.12468082 -0.025078835 0.026755432 0.0030584948
0.04499267 0.21090887 0.070662566 0.032727215 0.24886598 0.0021475547 0.043663274 -0.02269478
-0.041003294 -0.3207534 -0.014181411 -0.13239163 -0.050690863 0.012961836 0.0039486 0.052487448
0.28466827 0.178313 0.20629086 0.25813577 -0.50525045 0.012216126 -0.11936561 0.22154815
0.016784461 0.009291363 0.09317823 -0.0052151517 -0.083088994 0.0016046152 0.045656838 0.00530707
5.411819e-05 -0.00997207 -0.02008389 0.11384329 0.009327365 0.022851104 0.018749813 0.13520227
0.16990052 0.112746015 0.14685851 -0.112279326 -4.3471933e-05 -0.0075699836 -0.0024396183 -0.010480301
0.0039086747 -0.0018627916 0.049765345 -0.0014444814 0.0023454179 0.018078776 -0.020610351 -0.0071205026
0.005787457 0.07352576 -0.23090781 -0.004312038 0.17944494 0.050745785 -0.01431814 -0.00019208036
0.002166862 0.013893553 -0.012496942 0.01916741 0.08839361 -0.0050226348 -0.0009614661 0.031624924
0.0046687066 -0.07498096 0.04632349 -0.30928436 0.034193553 0.054728944 -0.008443623 0.0010150169
0.12260362 0.08771992 0.044999857 0.10701796 -0.13106693 -0.22814463 -0.008506516 0.1356358
00000000: 183b 1c3a 4244 d23b a940 a2bc 487b 6636
00000010: 0eca 7abe fd1d cfb8 f658 653c e288 8d39
00000020: 4d4d c836 e802 7dbb 74f5 363c 7363 3dbd
00000030: 11ad f93b a819 e4bb cdec 4cba 230a aabc
00000040: 09d6 57bd bc68 56bd 0bf0 8abd fb2c d43c
00000050: c4f5 ec3b 4ae0 02ba 7983 be38 c2b5 063c
00000060: f144 0fbd 8434 3f39 2012 53bd aae7 92ba
00000070: e5c7 0a3a 7eb5 043c 02be fabb 35ae c9b9
00000080: a6af da3b 5cfb c3bb 7449 f73b ea71 52bd
00000090: 17aa 0e3c 9aab 253b 58a0 3bbb d294 4e3a
000000a0: 1573 2dbd 0746 6dbd 87ad 9abd 945a 90bb
000000b0: 5a52 fdbc d249 92b9 5b58 55bd 896c f23c
000000c0: 5122 ffbb 4e56 213c c75c 0a3c 2bbb e53a
000000d0: 80e3 ea3a eb13 debb c730 8039 8515 9bbd
000000e0: be81 99bc edbd 02bd f01e 15bd 9da5 6cbc
000000f0: 604a d33b 7008 ecbe b2d0 5d3b 9f8e 06bd
00000100: be2b 8bbb a77b e4bd e277 6f3e 0aec c23a
00000110: 4a4a 273e 363f ecb9 2fee 6bbe 26db edba
00000120: 65d0 61b7 c91b 1f3c bfe1 b3be e5f2 2cbd
00000130: 8609 4fbe 4655 423c 2472 42bb e2cd f93b
00000140: e275 1bbd f460 4dbd 5e47 20bd b610 bbbe
00000150: 9b94 90be 0152 cd3a 8334 ae3a 5038 b2be
00000160: 8fc6 c6bd a987 043a 0d2b 763e fb70 3d3c
00000170: 556b b7bc e7b6 62be 6666 803c 82c7 f43a
00000180: fc22 6dbe a782 893c 03a6 2fbe 4c35 cdbd
00000190: 33d8 6ebc f825 19be ab52 f13c c1c1 a93b
000001a0: 93d1 c9bd 25f5 c13e e2d0 6c3e 0098 c3bd
000001b0: fab9 1d3e a198 d93a 843e c9bd 587a 91be
000001c0: 927f edbd 8952 92be f8a7 80be 141f 5ebe
000001d0: d2d0 33be e7b8 2dbe b60e 8c3b 5d1d cabd
000001e0: e69d 443e 89f8 9b3e 0d70 833e 159c 183e
000001f0: 3cce 33be ff47 963e 6def 89be 1c47 03bd
00000200: 988a c3bb d7b1 103a f40a 793e d530 0f3b
00000210: 6546 ddbb 221b 81ba 55e3 f0bc efa9 64b9
00000220: 2d39 fdb6 445e 8c3c 9547 1dbe 53c2 593e
00000230: 864d a2bd 7856 dc3d 05e7 f8bb 7957 5c3e
00000240: faa8 833e 59ca 483e dd37 563e 6bda 0dbe
00000250: 455e afbd 96fd 633b 7d48 273b 6d5b e8bd
00000260: 7a1e 203d 6708 6a3a a8e3 803e 204a f23c
00000270: 56dc 00bd 919d b1bd 0268 2b3d 5bb8 193b
00000280: d73a b5bd 5e14 173e 1c80 0dbe 4655 333d
00000290: a858 ff3d 2172 cdbc 352e db3c 0771 483b
000002a0: 3c4a 383d 7ff8 573e 89b7 903d f90c 063d
000002b0: b9d6 7e3e fdbd 0c3b 43d8 323d 67ea b9bc
000002c0: 12f3 27bd ca39 a4be 2659 68bc ac91 07be
000002d0: 39a1 4fbd e15d 543c 4263 813b 14fd 563d
000002e0: 0ac0 913e af97 363e e93d 533e 5f2a 843e
000002f0: 1858 01bf 2526 483c f575 f4bd 85dd 623e
00000300: 917f 893c cd3a 183c 3ad4 be3d dde3 aabb
00000310: 902a aabd f451 d23a aa02 3b3d eee6 ad3b
00000320: f7fc 6238 e561 23bc f886 a4bc ac26 e93d
00000330: ced1 183c 3d32 bb3c 3599 993c 7772 0a3e
00000340: 67fa 2d3e 62e7 e63d 1462 163e b4f2 e5bd
00000350: a255 36b8 a00d f8bb 01e2 1fbb 92b5 2bbc
00000360: 5714 803b ea28 f4ba bfd6 4b3d c154 bdba
00000370: 95b5 193b f119 943c 0ad7 a8bc 1b53 e9bb
00000380: b5a4 bd3b ac94 963d 1973 6cbe ff4b 8dbb
00000390: 6ac0 373e d0da 4f3d a296 6abc 2e69 49b9
000003a0: e901 0e3b c9a1 633c f9bf 4cbc f904 9d3c
000003b0: b607 b53d ea94 a4bb e60a 7cba 2389 013d
000003c0: f3fb 983b 9e8f 99bd b3bd 3d3d 855a 9ebe
000003d0: 8a0e 0c3d 752b 603d 1f57 0abc 510a 853a
000003e0: 9b17 fb3d 80a6 b33d c551 383d 3b2c db3d
000003f0: 6936 06be bf9e 69be ea5e 0bbc 1ce4 0a3e

model.edge_encoder.layers.2.bias f4 [32]
-0.0012226935 0.05053579 -0.19559304 -0.07044312 -0.06847093 -0.084386155 -0.05035197 0.021925554
-0.07304909 -0.07609568 -0.039108362 -0.032618918 0.07673133 -0.07084607 -0.032401662 0.017180799
0.07424135 -0.06803145 -0.051505934 0.026829934 -0.015929628 -0.086160615 -0.084585205 -0.1435259
-0.009433849 -0.005637579 0.06612716 -0.1946094 -0.08386797 -0.10488504 0.008907878 -0.085716255
00000000: c942 a0ba 9efe 4e3d 8b49 48be 7c44 90bd
00000010: 7d3a 8cbd a6d2 acbd de3d 4ebd 389d b33c
00000020: c39a 95bd 0dd8 9bbd 1730 20bd 6a9b 05bd
00000030: 5125 9d3d bf17 91bd 9bb7 04bd bfbe 8c3c
00000040: d90b 983d 1354 8bbd e3f7 52bd 73ca db3c
00000050: da7e 82bc fa74 b0bd 023b adbd 74f8 12be
00000060: 6e90 1abc 71bb b8bb ad6d 873d b047 47be
00000070: f8c2 abbd f8cd d6bd 59f2 113c 018c afbd

model.node_encoder.layers.0.weight f4 [64, 16]
0.0053463797 -0.4474213 -0.15410165 -0.047871213 -0.16221105 0.44416156 0.26377702 -0.35657594
0.05186524 -0.109257996 -0.24806197 -0.21902542 -0.30504814 -0.27655154 0.43184507 -0.31021845
0.01958822 -0.054843396 -0.23951855 0.069729775 -0.22098583 0.05029446 0.25791195 -0.080614686
-0.21028112 -0.06708345 0.096876405 -0.014279747 -0.053665888 0.017859962 0.023453979 -0.16143355
-0.013828511 0.036950827 0.044693448 -0.018354021 0.022881502 -0.019469064 -0.045478858 0.03006041
0.028081166 0.021184906 -0.0059115477 0.024234714 0.022772104 0.026717296 -0.035246365 0.036159214
-0.2965137 -0.54076743 -0.16200006 -0.17703696 -0.79161155 0.43749157 0.36672467 -0.5437653
0.20794989 0.015357451 -0.5599464 0.009743902 -0.25582236 0.074390225 0.3457569 -0.47966436
0.18137787 0.26243922 0.41309258 -0.015172719 0.91913974 0.077084556 -0.5238645 0.36621502
0.07326297 -0.018927637 0.26458743 -0.09603153 -0.0026414448 -0.25845653 -0.09011187 0.4361407
-0.48596883 -0.022698637 0.3873714 -0.5569617 -0.65619 0.22681195 -0.05067405 -0.074306205
0.49316657 0.31158635 -0.48248944 0.46328235 0.10449596 0.5846032 -0.24079005 -0.08309677
0.12373756 -0.3448878 0.06600543 -0.045363065 0.41132584 0.24452826 -0.062354267 -0.16762288
0.2305128 -0.07093752 -0.2913998 -0.3258292 -0.21172655 -0.46055174 0.6453944 -0.011614728
-0.016631506 0.056507073 -0.14483906 0.047155455 -0.22584923 -0.0031464237 0.17261806 -0.0020634024
-0.18892871 -0.023779232 0.1532535 0.08256446 0.006583761 0.115743645 -0.14044565 -0.09163773
0.021894181 -0.018152237 -0.070537485 0.036640305 -0.04202902 -0.0004300322 0.06836552 -0.02522113
-0.07007746 -0.026977697 0.034652244 -0.020121157 -0.017722813 -0.015750712 0.018280819 -0.040660083
0.038467187 -0.06063395 0.113043025 -0.03512296 0.23790877 0.0577447 -0.12736166 0.005419016
0.1284531 -0.004244908 -0.087841935 -0.093089156 -0.03804377 -0.13446687 0.14739956 0.06868212
0.087656915 0.676188 0.19260159 0.07268817 0.3543107 -0.3544059 -0.41177344 0.47277236
-0.1370455 0.062279634 0.3785407 0.2105111 0.2717151 0.18131849 -0.6201843 0.41044715
0.09368612 0.073476985 0.06136751 0.044545017 0.3189651 -0.08530768 -0.16835834 0.093389824
0.0112768905 -0.017700905 0.055507228 -0.07967035 0.018256443 -0.11321305 0.014630293 0.1386679
-0.06077555 0.04940361 0.08821872 -0.065931864 -0.037704155 -0.057556603 -0.08105278 0.023167087
0.117861636 0.0676306 -0.084065035 0.06928176 0.055292185 0.0932109 -0.067800164 0.05095801
-0.0430429 0.05421042 0.08362808 -0.049307123 -0.00032153146 -0.033783294 -0.074021466 0.038341284
0.076783836 0.049199134 -0.041191947 0.055933855 0.04305359 0.070510045 -0.06347488 0.052444007
-0.045757998 0.17786053 0.19214489 -0.05016815 0.11895828 -0.16473843 -0.23964661 0.13573182
0.116331376 0.096340634 -0.04249249 0.10182186 0.120593436 0.09450535 -0.18622662 0.1859661
0.024322562 -0.17795655 -0.09609841 0.0038736654 -0.04065325 0.1523919 0.14540902 -0.1207794
-0.017824098 -0.05659157 -0.046017263 -0.087256685 -0.11298824 -0.12319911 0.17746311 -0.11312379
00000000: af30 af3b 6814 e5be d3cc 1dbe 9b14 44bd
00000010: a71a 26be 2569 e33e c80d 873e 1f91 b6be
00000020: a570 543d a8c2 dfbd f503 7ebe 3348 60be
00000030: 452f 9cbe 2a98 8dbe cc1a dd3e f4d4 9ebe
00000040: 7a77 a03c 78a3 60bd 5a44 75be 7cce 8e3d
00000050: 1c4a 62be 9001 4e3d 090d 843e 5019 a5bd
00000060: ef53 57be 0c63 89bd 2367 c63d 9af5 69bc
00000070: c3d0 5bbd 0e4f 923c 8f22 c03c d64e 25be
00000080: fb90 62bc c059 173d 7a10 373d 2c5b 96bc
00000090: fd71 bb3c 967d 9fbc 0a48 3abd 4041 f63c
000000a0: 790a e63c f88b ad3c a8b5 c1bb e187 c63c
000000b0: 908c ba3c 3bde da3c 7e5e 10bd af1b 143d
000000c0: a5d0 97be bc6f 0abf 58e3 25be 2d49 35be
000000d0: 0ea7 4abf e5fe df3e 56c3 bb3e 3434 0bbf
000000e0: d1f0 543e d19d 7b3c a658 0fbf e3a4 1f3c
000000f0: 26fb 82be e759 983d 0c07 b13e 9196 f5be
00000100: 1fbb 393e 6f5e 863e df80 d33e ff96 78bc
00000110: be4c 6b3f 82de 9d3d fc1b 06bf 8980 bb3e
00000120: e50a 963d 220e 9bbc 0178 873e 2eac c4bd
00000130: 171c 2dbb 6a54 84be 928c b8bd d54d df3e
00000140: e8d0 f8be 7ef2 b9bc 8b55 c63e 0b95 0ebf
00000150: 11fc 27bf 6441 683e 988f 4fbd da2d 98bd
00000160: 5480 fc3e 3f88 9f3e db08 f7be 5833 ed3e
00000170: fa01 d63d 8ea8 153f ab91 76be a42e aabd
00000180: 1e6a fd3d 2295 b0be db2d 873d 9fce 39bd
00000190: 4d99 d23e 9e65 7a3e 3067 7fbd 55a5 2bbe
000001a0: 8c0b 6c3e b147 91bd 5b32 95be 16d3 a6be
000001b0: d8ce 58be 70cd ebbe 9138 253f b34b 3ebc
000001c0: cc3e 88bc f673 673d b150 14be 1426 413d
000001d0: 0545 67be 3b34 4ebb cac2 303e 263a 07bb
000001e0: 8776 41be aacc c2bc 7cee 1c3e 8e17 a93d
000001f0: 97bc d73b 010b ed3d fcd0 0fbe 90ac bbbd
00000200: 6d5b b33c 00b4 94bc f575 90bd 2514 163d
00000210: 9f26 2cbd f275 e1b9 3903 8c3d 8b9c cebc
00000220: c584 8fbd 5500 ddbc 83ef 0d3d 20d5 a4bc
00000230: 6f2f 91bc a307 81bc a8c1 953c 308b 26bd
00000240: c58f 1d3d 4e5b 78bd 1a83 e73d 18dd 0fbd
00000250: 5b9e 733e b585 6c3d 186b 02be 0092 b13b
00000260: 3689 033e df18 8bbb 79e6 b3bd 87a5 bebd
00000270: c9d3 1bbd afb1 09be e9ef 163e 36a9 8c3d
00000280: 7885 b33d a81a 2d3f 5a39 453e 89dd 943d
00000290: 3668 b53e b174 b5be f8d3 d2be 380f f23e
000002a0: a855 0cbe ee18 7f3d 16d0 c13e 3990 573e
000002b0: 3e1e 8b3e 8eab 393e 66c4 1ebf 2126 d23e
000002c0: 82de bf3d 1a7b 963d 805c 7b3d d674 363d
000002d0: 654f a33e cbb5 aebd 2166 2cbe 2a43 bf3d
000002e0: b5c2 383c 7d01 91bc 8c5b 633d 352a a3bd
000002f0: 898e 953c 3edc e7bd e5b3 6f3c f5fe 0d3e
00000300: c8ef 78bd 715b 4a3d 04ac b43d 4907 87bd
00000310: ac6f 1abd 79c0 6bbd 00ff a5bd e7c8 bd3c
00000320: 7161 f13d e981 8a3d 4a2a acbd 98e3 8d3d
00000330: 0f7a 623d 5be5 be3d d0da 8abd 59b9 503d
00000340: c04d 30bd bf0b 5e3d 3345 ab3d 44f6 49bd
00000350: 3993 a8b9 5a60 0abd 9198 97bd c00b 1d3d
00000360: d840 9d3d 0885 493d e3b8 28bd e61a 653d
00000370: f658 303d 9267 903d 1eff 81bd 87cf 563d
00000380: bd6c 3bbd 1221 363e a1c1 443e 1e7d 4dbd
00000390: 66a0 f33d 31b1 28be ec65 75be 48fd 0a3e
000003a0: 253f ee3d 3d4e c53d 9b0c 2ebd fb87 d03d
000003b0: b1f9 f63d 058c c13d 31b2 3ebe e66d 3e3e
000003c0: 1c40 c73c 3e3a 36be 3ecf c4bd 52dd 7d3b
000003d0: 0684 26bd 9f0c 1c3e 1ae6 143e 315b f7bd
000003e0: d803 92bc 90cc 67bd 997c 3cbd a2b3 b2bd
000003f0: 6166 e7bd d14f fcbd e4b8 353e 72ad e7bd

model.node_encoder.layers.0.bias f4 [64]
-0.0035167618 -0.017943421 0.005587063 0.044914804 0.12368458 0.12659816 0.027904768 -0.010548257
-0.0075479187 0.018661665 0.09666088 0.019007878 0.013501742 0.011545606 0.031563316 -0.008919945
0.01946159 0.005296898 -0.010274397 -0.010144471 0.06092612 0.06891829 -0.012048038 0.03006554
0.17334838 -0.008742009 0.056678817 0.117185496 -0.0074842796 0.012885884 -0.0069317156 0.07639245
0.038972475 0.2215559 -0.008983625 0.065872386 0.08765421 -0.0012922258 -0.013751047 0.13343814
-0.014469556 0.07040859 0.024945227 0.065848485 -0.0051730205 -0.018717496 0.0100930715 0.023708994
0.012779791 -0.007391876 0.08948297 -0.0038943943 0.19900483 0.08500168 -0.012037095 0.040143922
0.06723366 -0.005893258 0.20079447 0.009750752 -0.01742701 0.026876751 -0.047505897 0.06052807
00000000: 7979 66bb 15fe 92bc ae13 b73b 96f8 373d
00000010: 574e fd3d f3a2 013e 8a98 e43c 99d2 2cbc
00000020: 8854 f7bb 59e0 983c 24f6 c53d 69b6 9b3c
00000030: 6936 5d3c c829 3d3c 8948 013d f624 12bc
00000040: ea6d 9f3c 9a91 ad3b f255 28bc ff34 26bc
00000050: ab8d 793d 0825 8d3d 2265 45bc 024c f63c
00000060: 3d82 313e a53a 0fbc 0c28 683d f3fe ef3d
00000070: b03e f5bb 511f 533c 7223 e3bb a573 9c3d
00000080: 9aa1 1f3d 8ddf 623e 0e30 13bc 1ae8 863d
00000090: 0d84 b33d e75f a9ba 124c 61bc 02a4 083e
000000a0: b711 6dbc 6132 903d ef59 cc3c 92db 863d
000000b0: 7182 a9bb 6f55 99bc 695d 253c 5d39 c23c
000000c0: 5462 513c 8d37 f2bb d942 b73d 1839 7fbb
000000d0: ecc7 4b3e 5c15 ae3d 3c37 45bc f46d 243d
000000e0: cdb1 893d 3b1c c1bb 119d 4d3e 9ec1 1f3c
000000f0: 17c3 8ebc a22c dc3c 8b95 42bd 48ec 773d

model.node_encoder.layers.2.weight f4 [32, 64]
-0.22014034 0.11287115 0.012360468 0.0435834 -0.223222 0.37033775 -0.488755 0.18565568
0.012759047 -0.20461772 0.18300734 -0.13312367 0.035846315 0.036498174 0.025793267 -0.06489599
0.01549308 0.059482336 0.24052666 -0.051865134 0.5920223 -0.2938342 0.39111927 0.011275866
0.05600121 -0.12462726 0.16350265 0.4712455 0.04084836 0.04216766 -0.017871115 0.32462734
0.42993656 0.26989228 -0.19199602 0.38635278 -0.12467877 -0.33970448 -0.01711966 -0.14089942
0.11332757 -0.65599394 0.38554794 -0.6548446 0.0149840135 -0.07638067 0.09258563 0.02317422
0.10682409 -0.10156968 -0.19804831 -0.25091594 0.25411877 0.42657584 -0.15477207 0.1864093
-0.11011469 -0.025612818 -0.26715726 -0.2264069 0.19940685 0.21982244 0.06833742 -0.033627123
0.0077208774 0.19318236 -0.028152905 -0.117503084 -0.16054215 -0.3781397 -0.14692959 0.15490353
0.066787645 -0.1142704 0.07021815 -0.00920813 -0.09633535 -0.065253474 -0.10743802 0.037573215
-0.13311997 -0.03334449 0.1964312 0.06690482 0.39046296 -0.21272829 0.35782415 -0.13205922
-0.50872517 0.056700163 -0.2742309 -0.1831887 0.092460215 -0.07454129 0.050367314 -0.26878902
0.15568647 -0.4689562 0.026442947 0.09822719 -0.22524652 -0.023716556 0.13576585 -0.40014282
0.15668684 0.030915273 0.18995208 -0.1481409 0.04124889 0.10214695 -0.02925604 -0.10664392
-0.058460105 0.13076034 -0.1972012 -0.003942629 -0.23754443 0.06928234 0.09206847 -0.04217144
-0.31865397 0.035424054 -0.6149877 -0.06866095 0.20318379 -0.08738454 0.27882123 -0.27304438
-0.26061803 0.020985154 0.015309823 -0.32247037 -0.02328139 0.044748567 -0.28632903 0.10030855
0.00025267818 -0.10704964 0.3537824 -0.013857999 0.024633344 0.024319258 0.06468034 -0.068232015
0.032073136 0.026145184 -0.051259883 -0.031246217 0.39176372 -0.0956962 0.10521191 0.026965687
-0.045009483 -0.10886201 0.1354991 0.3182342 -0.0066708527 0.026338166 -0.024326503 0.1802922
0.22205748 -0.16618906 -0.11227571 0.37956047 0.106612034 -0.16216394 -0.03399174 0.03235882
-0.066647224 -0.08494169 0.1931935 -0.48864034 -0.00908579 -0.09685147 0.048349153 0.057730556
0.059547126 -0.010482321 0.062239382 -0.12638703 0.073676676 0.42466146 -0.04084811 0.17627892
-0.009163836 -0.025371026 -0.34585702 -0.2550139 0.21595787 0.14861986 0.093595736 0.0017947268
-0.048103914 -0.11201202 0.010059797 0.0510104 -0.028000852 0.06799638 0.15742049 -0.14287533
-0.02891625 0.08913032 -0.12068118 0.041065957 0.05518989 0.02695126 0.057590842 -0.024750292
0.06150268 0.0119613875 -0.14602023 -0.034877434 -0.5706021 0.1173405 -0.20467594 0.06602695
0.24930318 -0.02521864 0.17606424 -0.1525283 -0.065845266 0.03697817 -0.026796954 0.08774753
-0.23767926 0.054809622 0.031220993 -0.2092426 0.13189201 0.058844868 -0.067927115 0.36673522
-0.14289908 0.8516844 -0.15257409 0.37759063 -0.029413268 -0.04243088 -0.0033677528 0.07645761
0.0076216487 -0.10446377 0.7376725 0.03679348 -0.3892814 -0.258374 -0.01244449 -0.0127934115
0.12330177 -0.008402879 0.2835644 0.01704498 -0.064231716 0.04354134 -0.09383205 0.09463279
00000000: 786c 61be fd28 e73d 8f83 4a3c 8284 323d
00000010: 4f94 64be e99c bd3e 183e fabe 861c 3e3e
00000020: 520b 513c 4f87 51be 4766 3b3e 9251 08be
00000030: 96d3 123d 1c7f 153d 674c d33c 30e8 84bd
00000040: b0d6 7d3c c0a3 733d 9f4c 763e 8970 54bd
00000050: c68e 173f 7071 96be c940 c83e 69be 383c
00000060: 8661 653d 943c ffbd 3d6d 273e 1747 f13e
00000070: 9c50 273d ffb7 2c3d 7266 92bc 8e35 a63e
00000080: a520 dc3e 522f 8a3e 9b9a 44be 08d0 c53e
00000090: 9557 ffbd bfed adbe 873e 8cbc f047 10be
000000a0: 4918 e83d 38ef 27bf 8a66 c53e e5a3 27bf
000000b0: 827f 753c 786d 9cbd 899d bd3d ddd7 bd3c
000000c0: 97c6 da3d c403 d0bd 2dcd 4abe 0e78 80be
000000d0: db1b 823e 2668 da3e 927c 1ebe 14e2 3e3e
000000e0: d083 e1bd f9d1 d1bc d6c8 88be 36d7 67be
000000f0: 4f31 4c3e 2219 613e 7df4 8b3d 98bc 09bd
00000100: 6aff fc3b 99d1 453e eca0 e6bc 75a5 f0bd
00000110: 2965 24be 879b c1be b674 16be 089f 1e3e
00000120: f6c7 883d 9906 eabd 89ce 8f3d b2dd 16bc
00000130: 784b c5bd 9da3 85bd 7708 dcbd 5fe6 193d
00000140: 9a50 08be 3b94 08bd 4325 493e 6505 893d
00000150: c3ea c73e 72d5 59be ba34 b73e 883a 07be
00000160: d03b 02bf 6e3e 683d fe67 8cbe d295 3bbe
00000170: c85b bd3d 1ba9 98bd f54d 4e3d b79e 89be
00000180: 466c 1f3e 071b f0be e19e d83c 562b c93d
00000190: 06a7 66be 3949 c2bc 3406 0b3e 85df ccbe
000001a0: 8472 203e 0742 fd3c cc82 423e 40b2 17be
000001b0: 99f4 283d 6c32 d13d 5daa efbc 2168 dabd
000001c0: dd73 6fbd 0ae6 053e 1def 49be 2b31 81bb
000001d0: d93e 73be e6e3 8d3d 658e bc3d f6bb 2cbd
000001e0: 9d26 a3be d018 113d d56f 1dbf 1d9e 8cbd
000001f0: 690f 503e aaf6 b2bd a8c1 8e3e 79cc 8bbe
00000200: ba6f 85be 0fe9 ab3c 0dd6 7a3c d61a a5be
00000210: 9db8 bebc 464a 373d b899 92be 926e cd3d
00000220: e479 8439 d73c dbbd f722 b53e a90c 63bc
00000230: decb c93c 2e39 c73c 2077 843d 3abd 8bbd
00000240: 1f5f 033d 6d2e d63c e2f5 51bd 11f8 ffbc
00000250: 4195 c83e 5ffc c3bd 5879 d73d 25e7 dc3c
00000260: dd5b 38bd 0cf3 debd 47c0 0a3e 98ef a23e
00000270: 2b97 dabb 23c3 d73c 6048 c7bc 859e 383e
00000280: 0963 633e 772d 2abe cff0 e5bd c055 c23e
00000290: 6957 da3d 4e0e 26be ec3a 0bbd af8a 043d
000002a0: 577e 88bd e9f5 adbd 84d4 453e 112f fabe
000002b0: 91dc 14bc 105a c6bd c309 463d e076 6c3d
000002c0: b0e7 733d 0abe 2bbc b9ee 7e3d 9a6b 01be
000002d0: cce3 963d 3a6d d93e 5950 27bd 7682 343e
000002e0: ea23 16bc e6d6 cfbc 2c14 b1be 2f91 82be
000002f0: 0f24 5d3e ce2f 183e 1faf bf3d 0a3d eb3a
00000300: 9c08 45bd 8f66 e5bd d9d1 243c 48f0 503d
00000310: 0b62 e5bc b041 8b3d d632 213e e94d 12be
00000320: c6e1 ecbc f589 b63d b227 f7bd c734 283d
00000330: cb0e 623d e4c8 dc3c 60e4 6b3d 20c1 cabc
00000340: 3cea 7b3d b2f9 433c 5486 15be a4db 0ebd
00000350: fb12 12bf 3750 f03d 9296 51be 2339 873d
00000360: 5549 7f3e 5297 cebc 2f4a 343e 6130 1cbe
00000370: e2d9 86bd 6c76 173d 4985 dbbc fab4 b33d
00000380: 3162 73be 0e80 603d 2bc3 ff3c b143 56be
00000390: b30e 073e 5107 713d 5f1d 8bbd b8c4 bb3e
000003a0: 2354 12be fd07 5a3f 623c 1cbe 8f53 c13e
000003b0: 18f4 f0bc 01cc 2dbd 84b5 5cbb cf95 9c3d
000003c0: 06bf f93b 1af1 d5bd 1bd8 3c3f c3b4 163d
000003d0: e44f c7be 9949 84be f9e3 4bbc 759b 51bc
000003e0: a385 fc3d 3bac 09bc 5a2f 913e eaa1 8b3c
000003f0: eb8b 83bd 6758 323d 052b c0bd d6ce c13d

model.node_encoder.layers.2.bias f4 [32]
0.021396164 -0.016472159 -0.01887783 0.003937717 0.058441892 -0.0034610003 0.02323665 0.05838855
0.0066900724 0.024208946 -0.022444105 0.0015450745 0.044951662 -0.012549517 0.0308497 -0.032037385
-0.010435912 -0.010199169 0.030243943 -0.009609106 0.0024450088 -0.015990587 -0.024345696 -0.019163033
0.011243455 0.010784894 0.022655645 -0.04472682 0.043449864 0.04079933 0.003317624 -0.0060662683
00000000: 0247 af3c 9ff0 86bc aea5 9abc f707 813b
00000010: c460 6f3d f3d1 62bb c95a be3c d528 6f3d
00000020: 6538 db3b d751 c63c b3dc b7bc 1984 ca3a
00000030: 3c1f 383d 7d9c 4dbc 83b8 fc3c a239 03bd
00000040: 63fb 2abc 6a1a 27bc 25c2 f73c 836f 1dbc
00000050: 713c 203b b1fe 82bc a070 c7bc cbfb 9cbc
00000060: 7836 383c 20b3 303c 5598 b93c 7833 37bd
00000070: 7cf8 313d 331d 273d 7f6c 593b 8cc7 c6bb

model.state_encoder.layers.0.weight f4 [64, 16]
0.047088437 0.13662697 -0.030789755 -0.12172385 0.029175138 -0.048286296 -0.1413628 0.050103582
-0.09216538 0.13666756 0.06214293 0.046798185 0.13639446 0.15243934 0.2796738 -0.082507454
-0.68671405 0.09514176 0.7082781 -0.2426383 0.32968944 0.4282482 -0.225224 0.25767595
0.19592416 0.06009787 -0.059384596 0.009735483 -0.10123022 0.3322391 -0.27397442 -0.28197786
-0.16563593 -0.2746024 0.0016385621 0.26183048 0.108194016 0.11958275 0.2813651 -0.07002138
0.23972945 -0.2895189 -0.15802458 -0.10337823 -0.32508352 -0.039365012 -0.5481772 -0.0037808474
-0.03535133 -0.01135611 0.15564442 -0.0017005232 -0.30570477 -0.01898332 0.029655019 -0.059937768
-0.052707065 0.060748555 0.062098194 0.016629359 0.15637898 -0.50753766 0.15712228 0.32942197
-0.0059138793 0.2037367 0.07357174 -0.17749709 -0.12891045 -0.0685739 -0.18869254 0.041853398
-0.15390229 0.24546784 0.124924816 0.07658326 0.35556096 -0.076290175 0.4112883 0.08335924
-0.009278099 -0.030025868 -0.004625203 0.0252682 0.013334911 0.010722699 0.027688429 -0.006776503
0.02289853 -0.034688335 -0.0174803 -0.010893475 -0.065606564 0.0003822859 -0.084818214 -0.0035866452
0.09325752 -0.07595445 -0.064318 0.07654164 0.018461123 -0.002013529 0.07988455 -0.030241506
0.04207085 -0.08893285 -0.038482096 -0.026528792 -0.11909635 -0.021913292 -0.1510626 0.00043204738
-0.50157917 0.23061337 0.31527284 -0.29296434 -0.0037608934 0.07226057 -0.28444812 0.1344884
-0.10653042 0.26034912 0.12025017 0.088714324 0.22955705 0.11393342 0.23196849 -0.053207178
-0.043998744 0.13363662 0.07738567 -0.13144077 -0.08457932 -0.03485616 -0.13031347 0.03290786
-0.10378575 0.16290264 0.084781736 0.052189168 0.26387823 -0.06264895 0.35752678 0.053116497
0.002017778 -0.043031357 -0.0012369057 0.03507853 -0.0062017636 0.010270763 0.040735677 -0.015230308
0.02483823 -0.04340473 -0.01764289 -0.013346114 -0.068967566 -0.058699332 -0.08641448 0.024630412
-0.2393063 -0.10763518 0.044880114 0.07573654 0.13860741 0.09860982 0.08536903 0.009104608
0.11904 -0.14359097 -0.08432377 -0.043552693 -0.2546494 0.18851337 -0.43199107 -0.113914475
0.15715301 0.20770203 -0.22471198 -0.20136718 0.3101677 -0.08802566 -0.26400638 0.12859227
-0.12908989 0.16721831 0.05890562 0.06502721 0.1104237 0.4129328 0.21621507 -0.33095717
-0.0005740932 -0.012997136 -0.00063534605 0.009827408 -0.00047751554 0.0034228042 0.011345536 -0.0044497442
0.007465863 -0.013363838 -0.005658147 -0.0045077973 -0.02205974 -0.015570363 -0.025266904 0.006254417
0.056131314 0.15519087 -0.0794083 -0.12470549 0.11858506 -0.048563056 -0.15833107 0.07054883
-0.0797395 0.13391966 0.047704864 0.045352302 0.11659828 0.27300373 0.24633886 -0.18666095
-0.07751702 0.041110996 0.042594835 -0.0501757 0.005151483 0.00876329 -0.0500461 0.02366373
-0.020836633 0.04617159 0.020075347 0.014719108 0.042660087 0.035876434 0.063367166 -0.016383896
-0.0014109649 -0.017903669 2.6667589e-05 0.013332887 -0.000814658 0.005055528 0.015785841 -0.005378419
0.00994929 -0.018495591 -0.008190076 -0.0063227504 -0.036586206 -0.021760833 -0.03655852 0.007990329
00000000: cedf 403d f1e7 0b3e cc3a fcbc 5b4a f9bd
00000010: b300 ef3c dac7 45bd 69c1 10be 6a39 4d3d
00000020: 34c1 bcbd 95f2 0b3e 9689 7e3d 74af 3f3d
00000030: fdaa 0b3e 0f19 1c3e 6831 8f3e abf9 a8bd
00000040: 7ecc 2fbf afd9 c23d b751 353f 2d76 78be
00000050: 0ecd a83e 5943 db3e 1fa1 66be 1aee 833e
00000060: 58a0 483e 2f29 763d 433d 73bd 9381 1f3c
00000070: ca51 cfbd 3e1b aa3e 6046 8cbe 675f 90be
00000080: 779c 29be b098 8cbe 05c5 d63a a50e 863e
00000090: d394 dd3d cde7 f43d 160f 903e 5f67 8fbd
000000a0: a37b 753e d23b 94be 32d1 21be f7b7 d3bd
000000b0: 5971 a6be 353d 21bd 5755 0cbf 18c8 77bb
000000c0: 8ecc 10bd fa0e 3abc 4061 1f3e 17e4 deba
000000d0: 5685 9cbe e882 9bbc 15ef f23c 4e81 75bd
000000e0: 5de3 57bd 7ad3 783d ad5a 7e3d 4b3a 883c
000000f0: d021 203e fded 01bf aae4 203e ffa9 a83e
00000100: 37c9 c1bb 5aa0 503e c8ac 963d ccc1 35be
00000110: 1a01 04be 7970 8cbd 9e38 41be 786e 2b3d
00000120: 9098 1dbe ec5b 7b3e 95d8 ff3d afd7 9c3d
00000130: 160c b63e 063e 9cbd 6194 d23e 40b8 aa3d
00000140: 2b03 18bc cff8 f5bc 048f 97bb 42ff ce3c
00000150: ac7a 5a3c 42ae 2f3c d8d2 e23c 6d0d debb
00000160: b395 bb3c 5b15 0ebd d932 8fbc 8c7a 32bc
00000170: bc5c 86bd 8c6d c839 2cb5 adbd ec0d 6bbb
00000180: ccfd be3d 028e 9bbd 28b9 83bd ddc1 9c3d
00000190: c83b 973c 69f5 03bb 839a a33d 09bd f7bc
000001a0: 7c52 2c3d 6d22 b6bd 679f 1dbd e952 d9bc
000001b0: cae8 f3bd 8183 b3bc 27b0 1abe 6b84 e239
000001c0: 7e67 00bf e925 6c3e 716b a13e 6cff 95be
000001d0: 5279 76bb 5afd 933d 2fa3 91be 54b7 093e
000001e0: 9f2c dabd 7b4c 853e b945 f63d dbaf b53d
000001f0: 0111 6b3e ed55 e93d 2689 6d3e c5ef 59bd
00000200: 0738 34bd 0ad8 083e 617c 9e3d 6998 06be
00000210: ec37 adbd 55c5 0ebd e570 05be 64ca 063d
00000220: a08d d4bd f3cf 263e 0ca2 ad3d 4fc4 553d
00000230: 0c1b 873e 184e 80bd c00d b73e af90 593d
00000240: b33c 043b a641 30bd ab1f a2ba 81ae 0f3d
00000250: 2a38 cbbb b446 283c 74da 263d 8b88 79bc
00000260: 8b79 cb3c 28c9 31bd d287 90bc a9a9 5abc
00000270: de3e 8dbd b66e 70bd 13fa b0bd b8c5 c93c
00000280: b60c 75be d56f dcbd 36d4 373d c21b 9b3d
00000290: 1aef 0d3e f2f3 c93d f5d5 ae3d 7e2b 153c
000002a0: 3ecb f33d 8309 13be f1b1 acbd 4f64 32bd
000002b0: 6861 82be a609 413e ef2d ddbe fe4b e9bd
000002c0: b8ec 203e d7af 543e e61a 66be 3333 4ebe
000002d0: 4dce 9e3e cc46 b4bd d82b 87be b1ad 033e
000002e0: 2430 04be 473b 2b3e 0547 713d fc2c 853d
000002f0: d225 e23d ee6b d33e 7c67 5d3e 3873 a9be
00000300: be7e 16ba f1f1 54bc 5a8d 26ba 2303 213c
00000310: 0d5b fab9 2051 603b a1e2 393c 29cf 91bb
00000320: 33a4 f43b 00f4 5abc fa67 b9bb 25b6 93bb
00000330: a1b6 b4bc d61a 7fbc 8afc cebc daf1 cc3b
00000340: f3e9 653d 5bea 1e3e d2a0 a2bd 9865 ffbd
00000350: b9dc f23d 0eea 46bd 8a21 22be e87b 903d
00000360: 774e a3bd 3c22 093e 2d66 433d 56c3 393d
00000370: 14cb ee3d 25c7 8b3e 4140 7c3e 0c24 3fbe
00000380: 3ec1 9ebd 0164 283d ec77 2e3d 0985 4dbd
00000390: c6cd a83b e793 0f3c 24fd 4cbd 70da c13c
000003a0: 96b1 aabc 6c1e 3d3d 0e75 a43c 6a28 713c
000003b0: 58bc 2e3d 2bf3 123d a5c6 813d 8537 86bc
000003c0: 20f0 b8ba b7aa 92bc 36b4 df37 2e72 5a3c
000003d0: c68e 55ba d8a8 a53b 4f51 813c 733d b0bb
000003e0: 5902 233c 1184 97bc ab2f 06bc 132f cfbb
000003f0: 6bdb 15bd c643 b2bc 63be 15bd dee9 023c

model.state_encoder.layers.0.bias f4 [64]
0.060111284 0.06333718 -0.04971378 0.027991733 0.12223599 -0.010821159 -0.029648162 0.10611579
0.07153031 -0.009444277 -0.048370242 0.10459497 -0.0031101473 0.0747604 0.012202212 -0.0051950137
0.036245067 0.015889235 0.018830914 -0.045641076 0.01744141 0.019125327 -0.042508747 -0.008859486
0.08757842 0.04355939 0.058968082 0.04477182 0.12373996 0.019860854 0.008033526 -0.08783515
0.12289674 -0.02068348 0.07974855 0.09840837 0.0042115874 -0.0042101257 -0.015881356 0.02847367
0.10608345 -0.0029322037 -0.031206578 0.031831007 0.03990993 -0.007961599 -0.017733436 -0.028783288
0.038242515 -0.01645587 0.03813701 -0.013597451 0.0616241 -0.0059903543 -0.04041609 -0.0042147404
0.042322602 -0.040994253 0.0067166793 0.032711864 0.053951375 0.009734938 -0.008687388 0.13201277
00000000: 4037 763d ecb6 813d ada0 4bbd eb4e e53c
00000010: dd56 fa3d 3b4b 31bc b4e0 f2bc 3c53 d93d
00000020: 7c7e 923d 2bbc 1abc e01f 46bd e335 d63d
00000030: 9dd3 4bbb fb1b 993d c9eb 473c ef3a aabb
00000040: b575 143d 242a 823c 4a43 9a3c 23f2 3abd
00000050: 4ae1 8e3c b8ac 9c3c a71d 2ebd 6127 11bc
00000060: 515c b33d 556b 323d 8488 713d a862 373d
00000070: 606b fd3d 3bb3 a23c 0d9f 033c eae2 b3bd
00000080: 49b1 fb3d 6770 a9bc 3553 a33d 548a c93d
00000090: 5b01 8a3b 18f5 89bb 9e19 82bc 9d41 e93c
000000a0: 4842 d93d 372a 40bb f0a4 ffbc 3b61 023d
000000b0: 9878 233d 5e71 02bc b645 91bc eeca ebbc
000000c0: 2fa4 1c3d 76ce 86bc 8e35 1c3d d8c7 5ebc
000000d0: 8d69 7c3d bc4a c4bb 588b 25bd ce1b 8abb
000000e0: 775a 2d3d 97e9 27bd 9717 dc3b e0fc 053d
000000f0: 1efc 5c3d 4a7f 1f3c 8c55 0ebc 5b2e 073e
