pretrained_models/MEGNet-MP-2018.6.1-Eform/state.pt (torch, 796373 bytes, 105 tensors)

model.bond_expansion.rbf.centers f4 [100]
0	0x00000000	0.0
1	0x3d4ede62	0.05050505
2	0x3dcede62	0.1010101
3	0x3e1b26ca	0.15151516
4	0x3e4ede62	0.2020202
5	0x3e814afd	0.25252524
6	0x3e9b26ca	0.3030303
7	0x3eb50296	0.35353535
8	0x3ecede62	0.4040404
9	0x3ee8ba2e	0.45454544
10	0x3f014afd	0.5050505
11	0x3f0e38e4	0.5555556
12	0x3f1b26ca	0.6060606
13	0x3f2814b0	0.65656567
14	0x3f350296	0.7070707
15	0x3f41f07c	0.75757575
16	0x3f4ede62	0.8080808
17	0x3f5bcc48	0.85858583
18	0x3f68ba2f	0.90909094
19	0x3f75a815	0.959596
20	0x3f814afd	1.010101
21	0x3f87c1f0	1.060606
22	0x3f8e38e4	1.1111112
23	0x3f94afd7	1.1616162
24	0x3f9b26ca	1.2121212
25	0x3fa19dbd	1.2626263
26	0x3fa814b0	1.3131313
27	0x3fae8ba3	1.3636364
28	0x3fb50296	1.4141414
29	0x3fbb7989	1.4646465
30	0x3fc1f07c	1.5151515
31	0x3fc8676f	1.5656565
32	0x3fcede62	1.6161616
33	0x3fd55555	1.6666666
34	0x3fdbcc48	1.7171717
35	0x3fe2433b	1.7676767
36	0x3fe8ba2f	1.8181819
37	0x3fef3122	1.8686869
38	0x3ff5a815	1.919192
39	0x3ffc1f08	1.969697
40	0x40014afd	2.020202
41	0x40048677	2.070707
42	0x4007c1f0	2.121212
43	0x400afd6a	2.1717172
44	0x400e38e4	2.2222223
45	0x4011745d	2.2727273
46	0x4014afd7	2.3232324
47	0x4017eb50	2.3737373
48	0x401b26ca	2.4242425
49	0x401e6243	2.4747474
50	0x40219dbd	2.5252526
51	0x4024d936	2.5757575
52	0x402814b0	2.6262627
53	0x402b5029	2.6767676
54	0x402e8ba3	2.7272727
55	0x4031c71c	2.7777777
56	0x40350296	2.8282828
57	0x40383e10	2.878788
58	0x403b7989	2.929293
59	0x403eb503	2.979798
60	0x4041f07c	3.030303
61	0x40452bf6	3.0808082
62	0x4048676f	3.131313
63	0x404ba2e9	3.1818182
64	0x404ede62	3.2323232
65	0x405219dc	3.2828283
66	0x40555555	3.3333333
67	0x405890cf	3.3838384
68	0x405bcc48	3.4343433
69	0x405f07c2	3.4848485
70	0x4062433b	3.5353534
71	0x40657eb5	3.5858586
72	0x4068ba2f	3.6363637
73	0x406bf5a8	3.6868687
74	0x406f3122	3.7373738
75	0x40726c9b	3.7878788
76	0x4075a815	3.838384
77	0x4078e38e	3.8888888
78	0x407c1f08	3.939394
79	0x407f5a81	3.989899
80	0x40814afd	4.040404
81	0x4082e8ba	4.090909
82	0x40848677	4.141414
83	0x40862434	4.1919193
84	0x4087c1f0	4.242424
85	0x40895fad	4.292929
86	0x408afd6a	4.3434343
87	0x408c9b27	4.3939395
88	0x408e38e4	4.4444447
89	0x408fd6a0	4.4949493
90	0x4091745d	4.5454545
91	0x4093121a	4.5959597
92	0x4094afd7	4.646465
93	0x40964d93	4.6969695
94	0x4097eb50	4.7474747
95	0x4099890d	4.79798
96	0x409b26ca	4.848485
97	0x409cc486	4.8989897
98	0x409e6243	4.949495
99	0x40a00000	5.0

model.embedding.layer_node_embedding.weight f4 [89, 16]
0	0x3e5df0c5	0.21673878
1	0x3b7e3a24	0.0038791979
2	0xbdd6362d	-0.10459552
3	0x3e4fe815	0.20303376
4	0xbe53f9c1	-0.20700742
5	0xbc20475f	-0.009782641
6	0xbdf9f249	-0.12204415
7	0x3de9a1fa	0.11407848
8	0x3e841cb9	0.25803164
9	0x3b05bba3	0.002040603
10	0xbcb5511f	-0.022133408
11	0x3e827450	0.25479364
12	0xbf2638f3	-0.6493065
13	0xbd3c43ba	-0.045963027
14	0x3eb6306a	0.35583812
15	0x3e52aa20	0.2057271
16	0x3e97ac75	0.29623762
17	0x3ea02e9f	0.3128557
18	0xbe7a463a	-0.24440852
19	0x3ea8445a	0.32864648
20	0xbc9eee05	-0.019400606
21	0xbea96169	-0.3308213
22	0x3e2d902c	0.16949528
23	0x3d21f393	0.03953893
24	0x3da064bb	0.07831713
25	0xbded1c43	-0.11577656
26	0x3c4221df	0.011848896
27	0xbbbb42ce	-0.005714751
28	0xbf14cc40	-0.5812416
29	0xbe9cb743	-0.30608568
30	0xbea3ca8a	-0.31990463
31	0x3e4678e0	0.19382048
32	0xbd79528e	-0.060869746
33	0x3a8b94a8	0.0010649161
34	0xbd40f18f	-0.04710537
35	0x3c899fd4	0.016799845
36	0xbd430754	-0.04761441
37	0xbec325b5	-0.38114706
38	0x3dcc8e31	0.09988058
39	0xbd11cf6c	-0.035598204
40	0x3d9b8eb3	0.07595577
41	0xbd2ee989	-0.042703185
42	0x3da4bd77	0.0804395
43	0xbde4e42e	-0.11176334
44	0xbe4cafac	-0.19988889
45	0xbc095a74	-0.008383382
46	0xbc73bb3d	-0.014876184
47	0x3ea964f1	0.33084825
48	0xbe94db32	-0.29073483
49	0xbec2d508	-0.38053155
50	0xbe539a6d	-0.20664378
51	0x3d8697fd	0.06571958
52	0x3e4588f0	0.19290519
53	0xbe7f8118	-0.24951589
54	0x3e075722	0.13216832
55	0x3e9b6964	0.30353844
56	0xbeb3f4f3	-0.3514782
57	0x3e38627f	0.18006323
58	0x3e1e1f52	0.15441635
59	0xbd6ece18	-0.058302015
60	0xbe1aad01	-0.15105058
61	0x3ecaa898	0.39581752
62	0x3ee7080c	0.45123327
63	0x3e817d9b	0.25291142
64	0xbdebe1ba	-0.11517663
65	0xbf10d1c8	-0.565701
66	0xbe68b6cf	-0.22725986
67	0x3dfb2af5	0.12264053
68	0x3e187c73	0.14891224
69	0x3cfd6fa0	0.030937016
70	0xbdee0714	-0.11622444
71	0x3eb598a2	0.35468012
72	0xbe983c86	-0.29733676
73	0x3edef2b1	0.43544534
74	0x3dadedbe	0.08492611
75	0x3de50ce1	0.11184097
76	0xbbf655d5	-0.007517556
77	0x3ec966dd	0.3933629
78	0x3f182821	0.5943623
79	0x3f00f2e1	0.50370604
80	0x3eb11bc9	0.3459151
81	0xbf2eed27	-0.68330616
82	0xbe8b054f	-0.27152488
83	0x3e499e81	0.1968937
84	0x3ec9d753	0.39422092
85	0x3cddfebd	0.027099008
86	0xbddd7217	-0.108127765
87	0x3f00da97	0.5033354
88	0xbec8be6c	-0.3920778
89	0x3ceca9c0	0.028889537
90	0xbe936ac2	-0.28792387
91	0x3ef55fad	0.47924557
92	0xbe3d0bad	-0.18461485
93	0x3da0145b	0.078163825
94	0x3ec1a757	0.37822983
95	0x3f2086c1	0.6270562
96	0x3e1b62f5	0.15174468
97	0xbf10b553	-0.5652668
98	0xbf1092ad	-0.5647381
99	0x3eb99c01	0.36251834
100	0x3e5b1c58	0.21397531
101	0x3f90da91	1.1316701
102	0xbee02dfb	-0.4378508
103	0x3e64cce2	0.22343782
104	0x3e7a8edc	0.24468559
105	0xbe73bcae	-0.23802444
106	0xbf2ce450	-0.6753588
107	0x3ee83784	0.45354855
108	0xbf1614ab	-0.58625287
109	0xbe423263	-0.18964534
110	0x3f0bfe03	0.54684466
111	0xbe680fec	-0.22662324
112	0xbe5b0c52	-0.21391419
113	0x3ebba2fc	0.36647785
114	0x3c8e1424	0.017343588
115	0xbeb1fcc1	-0.34763148
116	0xbe83ac0f	-0.25717208
117	0xbe71132d	-0.23542471
118	0x3d5c26e4	0.053748026
119	0xbe800503	-0.25003824
120	0x3e957be0	0.29196072
121	0x3e047861	0.12936546
122	0xbe9f8f2a	-0.31163913
123	0x3ddb44d0	0.10706484
124	0xbe8900ae	-0.2675833
125	0x3e35f061	0.17767479
126	0x3ddff76b	0.10935863
127	0xbe5e06d3	-0.2168229
128	0xbf03b4de	-0.51447856
129	0x3da93ab1	0.082631476
130	0x3e6ed2e4	0.23322636
131	0xbede1bf5	-0.43380705
132	0xbedb99dd	-0.42890826
133	0x3d9f7995	0.07786862
134	0x3e260b7e	0.16215321
135	0xbe75c7d3	-0.24002008
136	0x3e933c17	0.28756782
137	0x3eb00544	0.34379017
138	0x3dd5281a	0.104080394
139	0xbe347d43	-0.17625909
140	0xbb535531	-0.0032246823
141	0x3e13f232	0.14447859
142	0x3e88757d	0.26652136
143	0xbe679c4d	-0.22618218
144	0xbbdd9ae2	-0.0067628482
145	0xbe2e805a	-0.1704115
146	0xbdac4b2b	-0.08412775
147	0xbdbb11d0	-0.09134257
148	0x3bd8cf89	0.006616537
149	0x3c9108ed	0.017704451
150	0x3bc10ece	0.0058916574
151	0xbe1c292d	-0.15250082
152	0xbe22adeb	-0.15886657
153	0x3db46663	0.08808591
154	0x3e7c9f71	0.24670197
155	0x3e52a571	0.20570923
156	0x3dcb0823	0.09913661
157	0x3da73225	0.08163861
158	0xbebb6f75	-0.36608472
159	0x3e4c624c	0.19959372
160	0xbe2414ad	-0.16023512
161	0x3d8889ba	0.06666894
162	0x3da04235	0.07825128
163	0x3d45170d	0.048117686
164	0xbd13343e	-0.035938494
165	0xbf0d38a0	-0.5516453
166	0xbe36a4a6	-0.17836246
167	0xbd88055f	-0.066416495
168	0xbe1c4af9	-0.15262975
169	0xbdf8633b	-0.12128302
170	0x3beff9a6	0.0073234616
171	0x3de542ff	0.11194419
172	0xbe08af99	-0.13348235
173	0x3af72e7a	0.0018858456
174	0xbeeae335	-0.4587647
175	0x3ed27dca	0.41111594
176	0xbe92d737	-0.2867982
177	0xbe703991	-0.2345946
178	0x3e5abc31	0.21360852
179	0x3e0a03da	0.13478032
180	0x3ded3493	0.11582293
181	0xbe2c660d	-0.16835804
182	0x3d862dbb	0.06551691
183	0x3d492efa	0.049117066
184	0xbec9043e	-0.3926105
185	0x3ead645d	0.33865634
186	0x3da34726	0.07972555
187	0xbe8ae90d	-0.2713093
188	0x3d9de4f8	0.07709688
189	0x3d384ddc	0.044996127
190	0xbe09c0ce	-0.13452455
191	0x3c93c65a	0.018038917
192	0xbeb82f5f	-0.3597364
193	0xbed4588b	-0.41473803
194	0x3be3fc50	0.006957568
195	0xbe781f2e	-0.24230644
196	0x3e731382	0.2373791
197	0x3e077638	0.1322869
198	0x3eb2ed80	0.34946823
199	0x3e94a411	0.29031423
200	0xbe9e93ee	-0.30972236
201	0x3e77619a	0.24158326
202	0x3e91d5ff	0.2848358
203	0xbec7f401	-0.39053348
204	0x3d97b552	0.07407631
205	0x3d62290c	0.055214927
206	0x3e298213	0.16553526
207	0x3b6f2c58	0.0036494937
208	0xbd62c134	-0.055360034
209	0xbf30a45f	-0.6900081
210	0xbe82fa91	-0.25581792
211	0xbd55ff8d	-0.052245665
212	0x3e2515da	0.16121617
213	0x3e9a9033	0.3018814
214	0x3de61ec4	0.11236337
215	0x3e8c79c9	0.27436665
216	0xbe35f9de	-0.17771098
217	0x3ed140c1	0.40869716
218	0x3e7d4ab5	0.2473553
219	0xbed14c4c	-0.40878522
220	0x3e6d2cec	0.23161668
221	0xbd3364b8	-0.043797225
222	0x3efc1e94	0.4924208
223	0x3dca33f2	0.09873189
224	0xbe0359fb	-0.12827294
225	0xbf44be68	-0.76853037
226	0xbc841f28	-0.016128138
227	0xbe1ceda6	-0.1532503
228	0x3e26b7b8	0.1628102
229	0x3f5a09aa	0.85170996
230	0x3e6bcebe	0.23028085
231	0x3e99fe9c	0.30077064
232	0x3d6f56c8	0.05843237
233	0x3b6a6688	0.003576668
234	0x3e86b635	0.26310888
235	0xbd0f836e	-0.03503745
236	0x3e83c498	0.25735927
237	0xbe02eda2	-0.12785962
238	0x3ed6f2c0	0.4198208
239	0x3e1ae6bd	0.15127082
240	0xbe1d03f7	-0.15333544
241	0xbe240595	-0.16017754
242	0x3e285911	0.16440226
243	0xbe690d2a	-0.22758928
244	0xbe7957f9	-0.24349965
245	0x3f420ea2	0.7580358
246	0xbd5b9e4d	-0.053617764
247	0x3df70146	0.1206079
248	0x3ef5953f	0.47965428
249	0x3d280e2e	0.041029148
250	0xbe79b83e	-0.24386689
251	0xbc25a96a	-0.010111192
252	0x3e3b93e5	0.18318136
253	0x3dab832e	0.0837463
254	0x3e0becd5	0.13664563
255	0xbf20ca4f	-0.628087

model.edge_encoder.layers.0.weight f4 [64, 100]
0	0xbce0f656	-0.027461212
1	0x3dac2f2e	0.08407436
2	0xbe26f571	-0.16304566
3	0x3e08349b	0.13301317
4	0x3dcb3426	0.09922056
5	0x3cc7680c	0.024341606
6	0x3d5f34ef	0.05449384
7	0x3c9d147c	0.019174807
8	0x3e26d900	0.16293716
9	0x3dced850	0.10099852
10	0xbccd2364	-0.02504129
11	0x3c81bc34	0.015836813
12	0xbe111108	-0.14166653
13	0x3cf9c87f	0.030491112
14	0xbda7d95e	-0.081957564
15	0xbdce4a68	-0.100727856
16	0xbddb1ad6	-0.10698478
17	0x3d79a3d1	0.060947243
18	0xbda48850	-0.08033812
19	0x3be459e1	0.006968722
20	0xbe07a068	-0.13244784
21	0xbca4b7c5	-0.02010716
22	0x3d9832e9	0.07431585
23	0x3da362ef	0.079778545
24	0x3d4f7075	0.050644357
25	0x3de053a1	0.10953451
26	0x3d2b9e45	0.041898984
27	0x3d19c844	0.037544504
28	0x3e0f113d	0.1397142
29	0xbce6de60	-0.028182209
30	0xbc72c2e3	-0.014816972
31	0xbe218d75	-0.15776618
32	0x3e06f6f6	0.13180146
33	0x3d0529fa	0.032510735
34	0x3c85999a	0.016308594
35	0xbe510224	-0.20410973
36	0xbd51cf86	-0.0512233
37	0xbe38c97d	-0.18045612
38	0xbdb01178	-0.08597082
39	0xbe727fce	-0.23681566
40	0xbdeffa0b	-0.11717614
41	0xbcbd52b4	-0.023110725
42	0xbcf38d9f	-0.029730616
43	0xbe1e42e0	-0.15455198
44	0xbe0e9415	-0.13923676
45	0xbe08f0ea	-0.13373151
46	0xbc79a190	-0.015236273
47	0xbdbbff00	-0.09179497
48	0xbc005520	-0.007832795
49	0xbe61cfd0	-0.2205193
50	0xbe4f9b9b	-0.20274203
51	0xbe2601b7	-0.16211592
52	0xbe83e3e6	-0.2575981
53	0xbe104317	-0.14088093
54	0xbd4e1a9b	-0.05031834
55	0xbe911482	-0.2833596
56	0xbe50472d	-0.20339651
57	0xbbb3daae	-0.005488715
58	0xbe866054	-0.26245368
59	0xbe981d82	-0.29710013
60	0xbe38242e	-0.17982551
61	0xbe5c01a0	-0.21484995
62	0xbd59c2b2	-0.05316419
63	0xbc213af2	-0.009840714
64	0xbe10620d	-0.14099903
65	0xbe88db9a	-0.26730043
66	0xbca5fc36	-0.020261865
67	0xbd57110d	-0.052506495
68	0xbe22e5b3	-0.15907936
69	0xbcf630bc	-0.030052535
70	0xbe289e1d	-0.16466565
71	0xbe674e52	-0.2258847
72	0x3d3c74d3	0.04600985
73	0x3d583edf	0.052794334
74	0xbdeec791	-0.11659158
75	0x3cfb0d30	0.030645937
76	0xbe383755	-0.17989857
77	0x3d8d2a28	0.06892806
78	0x3d850817	0.06495684
79	0x3d86046a	0.06543811
80	0xbe072353	-0.13197069
81	0x3dc0ff0d	0.09423647
82	0x3e293b6d	0.16526575
83	0x3d0068ef	0.031350072
84	0x3e087ae2	0.13328126
85	0x3d3f57a4	0.04671444
86	0x3e3bf9d7	0.18357025
87	0x3e0fea4b	0.1405422
88	0x3e9b96d4	0.3038851
89	0x3e66bf2c	0.22533864
90	0x3e4a3bb8	0.19749343
91	0x3ea81537	0.32828686
92	0x3eb9f687	0.36320898
93	0x3ee75c8d	0.45187798
94	0x3ed64a6d	0.41853657
95	0x3efd2c69	0.49447945
96	0x3ed01bdf	0.40646264
97	0x3e8351d7	0.25648376
98	0x3f13ca68	0.5773072
99	0x3f1519a1	0.5824223
100	0x3e51fd93	0.20506887
101	0x3e8d73db	0.27627453
102	0x3ec8994b	0.39179453
103	0x3ebb686f	0.36603114
104	0x3d9f2a79	0.07771773
105	0x3dabfe6f	0.08398139
106	0x3e813637	0.25236675
107	0x3e6d2c58	0.23161447
108	0x3e2aae46	0.16668043
109	0x3e98886e	0.29791588
110	0x3e954e53	0.2916132
111	0x3da07485	0.07834724
112	0x3d497d47	0.04919174
113	0x3deb6362	0.11493565
114	0x3e71fe46	0.23632154
115	0x3e2aa895	0.16665871
116	0x3e0b2ef8	0.13592136
117	0x3e46b7e8	0.19406092
118	0x3e6c60c2	0.23083785
119	0x3e66cf22	0.22539952
120	0xbcded36c	-0.027200423
121	0x3e1eba43	0.1550074
122	0x3e4fac93	0.20280676
123	0x3d9790fd	0.07400701
124	0x3c8c7df1	0.017149897
125	0x3dc39a4f	0.095509164
126	0xbbc5c802	-0.0060358057
127	0x3e38a916	0.18033251
128	0xbd1969f8	-0.037454575
129	0xbdb1906d	-0.08670125
130	0xbe181786	-0.14852723
131	0xbdc35dc3	-0.09539368
132	0xbdfcd7cd	-0.12345848
133	0xbdcad0e5	-0.09903125
134	0x3e02c577	0.1277064
135	0x3c4c611e	0.012474326
136	0xbcb983e1	-0.022645893
137	0xbabbb775	-0.0014321642
138	0xbe081996	-0.1329101
139	0xbdb55a0b	-0.08855065
140	0xbe6612d2	-0.22468117
141	0xbd81673c	-0.063185185
142	0xbda1bdfd	-0.078975655
143	0xbddc29e4	-0.107501775
144	0xbc5ed8e7	-0.013601518
145	0xbe19bf09	-0.1501428
146	0x3cd74941	0.026280047
147	0x3ce99362	0.02851266
148	0xbe1c49d7	-0.15262543
149	0x3b5e9b0d	0.003396693
150	0xbb9212da	-0.0044578137
151	0xbe67ab43	-0.22623925
152	0xbdcca6db	-0.09992763
153	0xbe3df366	-0.1854988
154	0xbd9a6bc2	-0.075400844
155	0xbe5bd0b4	-0.21466333
156	0xbe4c13c6	-0.19929418
157	0xbe151c22	-0.14561513
158	0xbb505e72	-0.0031794575
159	0xbe792212	-0.24329403
160	0xbe589e5f	-0.21154164
161	0xbdd92fba	-0.10604806
162	0xbe3fcdfd	-0.18730922
163	0xbe5098e1	-0.20370819
164	0xbde27874	-0.11058131
165	0xbe3f1a4a	-0.18662372
166	0xbda15ce4	-0.078790456
167	0xbe387cdf	-0.18016385
168	0x3bb0de17	0.005397569
169	0xbd9e8c56	-0.07741611
170	0x3df8c767	0.12147408
171	0xbdfb20d9	-0.122621246
172	0xbd1de392	-0.038547106
173	0x3d9a1cd3	0.07525029
174	0x3e4f77fc	0.20260614
175	0xbd36f649	-0.04466847
176	0x3d671074	0.056412175
177	0x3e7546d4	0.239528
178	0x3d866313	0.06561866
179	0x3e4f064d	0.20217247
180	0x3e2abe3f	0.16674136
181	0x3df4c48c	0.11951551
182	0x3e8d46c8	0.27593064
183	0x3d922575	0.071360506
184	0x3e5618cc	0.20907897
185	0x3e931a25	0.28730884
186	0x3e9dbe42	0.30809218
187	0x3dafbb0a	0.08580597
188	0x3cfc6c2a	0.030813295
189	0x3eae7374	0.3407246
190	0x3e56084b	0.20901601
191	0x3ecf75b7	0.40519497
192	0x3e2f0f75	0.1709574
193	0x3e3ccc02	0.18437198
194	0x3e2957fc	0.1653747
195	0x3e64a533	0.22328644
196	0x3ebe0208	0.37110925
197	0x3eb140ba	0.34619695
198	0x3e6644b3	0.22487144
199	0x3ecc08b0	0.39850378
200	0xbd05a91e	-0.032631986
201	0x3b43f608	0.0029901285
202	0xbcc79eb1	-0.024367662
203	0xbdbd0510	-0.09229481
204	0xbe3be039	-0.18347253
205	0xbd482035	-0.04885884
206	0xbc94bb26	-0.018155646
207	0x3dbfe9b9	0.09370751
208	0xbde85b0f	-0.11345493
209	0x3db3c7e4	0.087783605
210	0x3d118c18	0.035533994
211	0x3c51c856	0.0128041115
212	0x3d59d82d	0.053184677
213	0xbe04ab38	-0.1295594
214	0x3d1019af	0.035180744
215	0xbd8025a1	-0.06257177
216	0x3e1b581c	0.1517033
217	0xbe251f8c	-0.16125315
218	0xbe25862c	-0.16164464
219	0xbd3f2d89	-0.046674285
220	0x3d206195	0.03915556
221	0x3d2f2c7e	0.04276704
222	0x3e153fda	0.14575139
223	0x3db80ef7	0.08987229
224	0x3d12bb6f	0.03582328
225	0xbd8f5615	-0.06998841
226	0xbd3bb29d	-0.045824636
227	0xbd1f67bb	-0.038917284
228	0xbd3e5489	-0.046467338
229	0x3e28d134	0.16486055
230	0xbdad7f01	-0.0847149
231	0x3daf5952	0.085619584
232	0xbe2f19f3	-0.17099743
233	0xbd19c62d	-0.03754251
234	0x3e18c3eb	0.14918487
235	0xbdfe652c	-0.12421641
236	0xbd30e1cc	-0.043184087
237	0xbdf159b6	-0.11784689
238	0xbde9985f	-0.114060156
239	0xbbbf2cdc	-0.005834205
240	0x3cc32fce	0.023826506
241	0x3e3e6099	0.18591537
242	0xbdecf59e	-0.11570285
243	0xbe16b7c7	-0.14718543
244	0x3c9c1e6c	0.019057475
245	0x3e152838	0.14566123
246	0xbdc5c5df	-0.096568815
247	0xbb663b4c	-0.0035130559
248	0x3e2ec083	0.17065625
249	0x3e1f2150	0.15540051
250	0xbd9e16a5	-0.07719163
251	0x3d6a4aab	0.057200115
252	0x3e13c3fe	0.14430234
253	0x3e093d6c	0.13402337
254	0xbd770e15	-0.060316164
255	0xbd629ec5	-0.055327196

model.edge_encoder.layers.0.bias f4 [64]
0	0xbc18a9f8	-0.009317867
1	0x3ce4d49e	0.027933415
2	0x3c29e323	0.010369095
3	0xbcabbf3e	-0.020965215
4	0xb9cf4a12	-0.00039537303
5	0x3d1eb48e	0.03874641
6	0xbc5c9b9e	-0.013464836
7	0xbc1ec39a	-0.00969019
8	0x3c5cbd00	0.0134727955
9	0x3c94c55a	0.01816051
10	0xbc76130e	-0.015019191
11	0x3bc0cb9f	0.0058836485
12	0x3d071c2b	0.032985847
13	0x3c746788	0.014917262
14	0x3c57d542	0.013173403
15	0xbbb7af2d	-0.0056055994
16	0xbd245809	-0.04012302
17	0x3b7f9e9a	0.0039004446
18	0xbc2c3ebd	-0.010513005
19	0xbd1c8ef3	-0.038222264
20	0xbcb3d640	-0.021952748
21	0xbc617c6f	-0.013762577
22	0xbd0e38cd	-0.03472214
23	0x3d041608	0.032247573
24	0xbc0c396e	-0.008558614
25	0xbd1b0de9	-0.037855063
26	0x3bf3c06d	0.0074387104
27	0xbc16a478	-0.009194486
28	0xbcc46eca	-0.02397861
29	0x3b9a14da	0.0047021927
30	0xbc23a2a4	-0.009987507
31	0x3d65a382	0.056064136
32	0x3d1a4fa1	0.037673596
33	0xbc689ff4	-0.014198292
34	0xbd851ea5	-0.064999856
35	0x3a8a647b	0.001055851
36	0x3d3eb17c	0.04655598
37	0x3c06383b	0.008192117
38	0xbc127dd0	-0.008941129
39	0xbcd6c9fa	-0.026219357
40	0x3b9142d2	0.0044330144
41	0xbc824af0	-0.015904874
42	0x3a09e714	0.00052605686
43	0x3b4f4808	0.0031628627
44	0xbc2d7493	-0.0105868755
45	0x3c40d275	0.011768927
46	0xbcb37154	-0.021904625
47	0x3c9b753d	0.018976802
48	0xbc251da1	-0.010077865
49	0xbc692504	-0.014230017
50	0x3ca538ef	0.02016875
51	0xbc58d622	-0.013234647
52	0xbc062501	-0.008187533
53	0x3b0e8763	0.0021748177
54	0x3b88b012	0.00417138
55	0xbb98c16b	-0.004661729
56	0xbcff7cdb	-0.031187465
57	0xbc83953a	-0.016062368
58	0xbcce1f7e	-0.025161501
59	0xbcc87efd	-0.024474615
60	0x3c8658ab	0.016399702
61	0xbca700f9	-0.020386206
62	0x3cbabcf3	0.022795176
63	0xbbaea039	-0.0053291586

model.edge_encoder.layers.2.weight f4 [32, 64]
0	0x3e98f9a1	0.29877952
1	0x3ddf37fd	0.10899351
2	0x3e13e8dc	0.14444298
3	0x3dbc72e5	0.09201602
4	0xbe10e29b	-0.14148943
5	0x3e1d0b1f	0.15336274
6	0xbde15b67	-0.11003762
7	0x3ca7f78a	0.020503778
8	0xbcedf084	-0.02904535
9	0x3dfcc4c6	0.12342219
10	0xbedf3fb9	-0.43603304
11	0xbd16ac39	-0.036785338
12	0xbcbdae70	-0.023154467
13	0xbe00ea9f	-0.12589501
14	0xbcfa3afe	-0.030545708
15	0xbe560721	-0.20901157
16	0xbe15d77a	-0.14632979
17	0x3b95288a	0.004551952
18	0x3d8a41a1	0.06750799
19	0x3ceba07c	0.028763048
20	0xbf09f74b	-0.53892964
21	0x3da4134c	0.08011493
22	0xbe859baa	-0.26095325
23	0xbdb7d468	-0.0897606
24	0xbe8fa42f	-0.2805495
25	0xbe24d6c2	-0.16097549
26	0xbd8f3cd0	-0.06994021
27	0x3e0dd70f	0.1385157
28	0xbe34c292	-0.17652348
29	0x3e033268	0.12812197
30	0x3e862f10	0.2620778
31	0x3e8942e7	0.26808855
32	0x3e412ff7	0.18865953
33	0x3cc864b7	0.024462087
34	0x3e0e6ae5	0.13907965
35	0xbbd64935	-0.0065394887
36	0x3e0cf764	0.13766247
37	0xbb1f1eac	-0.0024279756
38	0xbd479529	-0.048726235
39	0x3e736398	0.23768461
40	0xbd91cd13	-0.07119193
41	0xbdc6c74e	-0.09705983
42	0x3d02fbef	0.031978544
43	0xbd904589	-0.07044513
44	0xbe86b46e	-0.26309532
45	0x3e782d13	0.24235944
46	0xbc73299e	-0.014841465
47	0xbd8137df	-0.06309485
48	0xbc28d5d4	-0.010304887
49	0x3dd57287	0.10422235
50	0xbe074f57	-0.1321386
51	0xbcbb5668	-0.02286835
52	0xbded4828	-0.11586028
53	0xbd826879	-0.06367583
54	0x3beb7457	0.0071854996
55	0xbe32ace8	-0.17448771
56	0xbdc0b80f	-0.094101064
57	0x3d86baaa	0.06578572
58	0xbea19c4d	-0.3156456
59	0xbe19de54	-0.15026218
60	0x3e9285f4	0.28617823
61	0xbe6a5285	-0.22883041
62	0xbd514cdb	-0.051098686
63	0x3e1f62fe	0.15565106
64	0x3e0e6cd6	0.13908705
65	0xbd26511e	-0.040604703
66	0x3d10bafe	0.03533458
67	0xbda6b179	-0.08139319
68	0x3e81be1b	0.2534035
69	0x3dbc2fd7	0.09188812
70	0x3d032cf6	0.0320253
71	0xba04acb1	-0.00050611334
72	0xbc81a284	-0.015824564
73	0x3d858939	0.06520314
74	0xbd5269ec	-0.051370546
75	0x3ce73eea	0.028228242
76	0x3d675027	0.056472924
77	0x3b9ce2ab	0.004787763
78	0x3d5d6e3f	0.054060217
79	0x3da05914	0.0782949
80	0x3c86e32c	0.016465746
81	0x3c069246	0.008213585
82	0xbc9d11ff	-0.01917362
83	0xbd6e08eb	-0.058113974
84	0x3d6a53cf	0.057208832
85	0xbcf50030	-0.029907316
86	0x3d25b829	0.040458832
87	0xbd0f9282	-0.03505183
88	0x3d7a1862	0.06105841
89	0x3ceb151b	0.028696587
90	0xbdcc0463	-0.09961774
91	0xbdaccb20	-0.084371805
92	0x3dc94f56	0.09829585
93	0x3c5997e7	0.013280845
94	0xbcd6c488	-0.02621676
95	0x3e069d30	0.131459
96	0xbd2e4b66	-0.042552374
97	0xbcde261f	-0.027117787
98	0xbe1902c1	-0.14942457
99	0x3c1e6345	0.009667222
100	0xba6c7d4f	-0.0009021358
101	0x3d0f471a	0.034979917
102	0xbbc36a6c	-0.005963614
103	0x3daa597c	0.08317849
104	0xbcc1d991	-0.023663314
105	0x3e0e0a0a	0.13871017
106	0x3ce46a49	0.027882712
107	0xbe47ddba	-0.19518176
108	0x3e3b3f07	0.18285762
109	0xbe0f3573	-0.13985233
110	0x3daf4143	0.085573696
111	0x3ce685d3	0.028139984
112	0x3c2afb28	0.010435857
113	0x3d99f951	0.075182565
114	0x3d9a8caf	0.075463645
115	0xbd377e02	-0.044797905
116	0xbd28a31d	-0.041171182
117	0x3d53328c	0.051561877
118	0x390fd5e4	0.00013717223
119	0x3db27cac	0.087151855
120	0xbc2fc026	-0.010726964
121	0x3ddf89d4	0.109149605
122	0x3d114346	0.035464548
123	0x3dfa432a	0.12219842
124	0x3e612266	0.21985778
125	0x3e152c0b	0.14567582
126	0x3cae8eb6	0.021308284
127	0xbd95616a	-0.07293971
128	0xbe53f17f	-0.20697592
129	0xbe4e46a2	-0.20144132
130	0x3d979899	0.074021526
131	0xbbe6c5de	-0.0070426306
132	0xbc9cce12	-0.01914123
133	0xbc92318a	-0.017845888
134	0xbd2ae10c	-0.041718528
135	0x3da15fc7	0.07879596
136	0xbda0767d	-0.078351
137	0xbdd255da	-0.10270281
138	0x3deff992	0.11717524
139	0xbd8b450f	-0.06800281
140	0xbd4cc719	-0.04999456
141	0xbcaaac50	-0.020834118
142	0x3d2b2ec5	0.04179265
143	0x3e0e33e4	0.13886982
144	0x3df5338c	0.119727224
145	0xbb06dd8d	-0.0020578832
146	0xbdbfd8eb	-0.09367546
147	0xbd837290	-0.064183354
148	0xbd964a45	-0.073383845
149	0xbda0c892	-0.07850756
150	0xbde2dedd	-0.11077664
151	0xbdb4ab13	-0.08821692
152	0xbb67da90	-0.0035378076
153	0xbdce6d6a	-0.10079463
154	0xbdedaa0f	-0.11604702
155	0xbc6c2b96	-0.014414689
156	0x3ddf73b5	0.10910741
157	0xbdd42b11	-0.10359777
158	0x3e4c39c2	0.19943908
159	0xbe0a0062	-0.13476709
160	0xbe76d07a	-0.24102965
161	0x3d91b89c	0.071152896
162	0x3e234cde	0.15947291
163	0x3c3418da	0.010992253
164	0xbb90b048	-0.0044155456
165	0x3dc104d7	0.09424751
166	0x3ddd5f7d	0.108092286
167	0x3cb8e9d5	0.022572437
168	0xbd749f37	-0.05972215
169	0x3e0f48b9	0.13992585
170	0x3becddac	0.007228574
171	0xbe330eff	-0.1748619
172	0x3e16728e	0.14692137
173	0xbe8fd1f2	-0.28089863
174	0x3e223f46	0.1584445
175	0xbdbc16fb	-0.09184071
176	0x3dbefdc9	0.093257494
177	0x3deabb55	0.11461512
178	0xbd2e1747	-0.042502668
179	0xba8e62dc	-0.0010863203
180	0x3d9c2bde	0.076255545
181	0xbe4fa81e	-0.20278975
182	0x3c28ea61	0.010309787
183	0x3bf4ec1f	0.007474437
184	0xbe868778	-0.2627523
185	0xbdd62d19	-0.104578204
186	0x3e145a90	0.14487672
187	0x3cf663c6	0.030076873
188	0xbe08c1d7	-0.13355194
189	0xbc8a4dde	-0.016882833
190	0xbe6d9c8a	-0.23204246
191	0xbd6dbaac	-0.058039352
192	0x3d58381b	0.05278788
193	0x3e276905	0.16348656
194	0x3cfdf4fa	0.031000603
195	0x3dfa568a	0.12223537
196	0x3e805670	0.25065947
197	0x3beb9e2d	0.007190487
198	0xbc0bd4de	-0.008534638
199	0xbcf5de9d	-0.030013377
200	0x3e08473c	0.13308424
201	0xbd23ab16	-0.039958082
202	0x3dba4083	0.09094336
203	0xbd185fa1	-0.037200574
204	0xbd0b650a	-0.034031905
205	0x3ca2ff60	0.019897163
206	0xbd6b25da	-0.057409145
207	0xbd8e739f	-0.06955647
208	0xbe1a4ba8	-0.15067923
209	0xba850708	-0.001014919
210	0x3e1b9cd8	0.1519655
211	0xbde04521	-0.10950685
212	0xbe4ec7ad	-0.20193358
213	0xbd37f5cd	-0.04491215
214	0x3ba286b6	0.0049599065
215	0x3b99396f	0.004676036
216	0xbe1428b5	-0.14468654
217	0x3df79e5b	0.12090751
218	0x3cbf034c	0.023317002
219	0xbc003cdb	-0.007827009
220	0xbdfb1482	-0.12259771
221	0x3cf44e6d	0.029822553
222	0x3e4bc4ab	0.19899242
223	0xbdeb9d26	-0.11504583
224	0xbe007ebb	-0.12548344
225	0xbc84d7d8	-0.016216204
226	0xbe4daacf	-0.2008469
227	0xbd28c52b	-0.04120366
228	0xbc148c57	-0.009066663
229	0x3dd11ae2	0.102102056
230	0x3db7e930	0.08980024
231	0x3e6becf2	0.23039606
232	0xbd05d685	-0.032675285
233	0x3d8324c9	0.064035006
234	0xbca9200f	-0.02064517
235	0x3dd7bc0a	0.105339125
236	0x3d862f80	0.06552029
237	0xbd224e28	-0.039625317
238	0x3cc3944b	0.023874423
239	0x3de78247	0.11304145
240	0xbd7c404b	-0.061584752
241	0x3e2598e2	0.16171601
242	0xbd49a52b	-0.049229782
243	0xbd583b0b	-0.052790683
244	0xbcbde2c8	-0.023179427
245	0x3d79c5ae	0.060979538
246	0xbbd78acc	-0.006577825
247	0x3a26494a	0.00063433184
248	0x3d2655e8	0.04060927
249	0xbd54e8f9	-0.051979993
250	0xbe27d38e	-0.16389295
251	0x3e2b3c22	0.16722158
252	0x3e1f2917	0.15543018
253	0x3e549874	0.20761281
254	0x3cb22623	0.0217467
255	0xbd446611	-0.0479489

model.edge_encoder.layers.2.bias f4 [32]
0	0xbe1a8d84	-0.15093046
1	0xbdcafebc	-0.09911868
2	0xbd097969	-0.03356305
3	0xbd9de68a	-0.077099875
4	0xbe0bbbee	-0.13645908
5	0xbda80687	-0.0820437
6	0xbddd220d	-0.1079751
7	0xbcf35be5	-0.029706905
8	0xbef47e35	-0.47752538
9	0xbdcc37fd	-0.099716164
10	0xbe1c111f	-0.15240906
11	0xbdd4151c	-0.10355589
12	0x3d06204f	0.032745656
13	0xbdb98f1c	-0.09060499
14	0xbdb7963e	-0.08964203
15	0xbd5aabfd	-0.053386677
16	0xbcd37b28	-0.025815561
17	0x3c6848ef	0.014177545
18	0xbe3e5499	-0.18586959
19	0xbe21eb1b	-0.15812342
20	0x3c08cc5e	0.008349506
21	0xbd0e7b35	-0.034785468
22	0xbd559282	-0.052141674
23	0xbcfa531a	-0.030557204
24	0xbe72220b	-0.23645799
25	0xbe1b5c79	-0.15171994
26	0xbdddde40	-0.108334064
27	0xbe1eb426	-0.15498409
28	0xbd56370e	-0.052298598
29	0xbbe9f4c8	-0.007139776
30	0x3bf148fb	0.0073634363
31	0xbd443b3e	-0.04790806

model.node_encoder.layers.0.weight f4 [64, 16]
0	0xbe80d962	-0.2516585
1	0x3ed488bc	0.4151057
2	0xbd72e6ad	-0.05930202
3	0xbebe8168	-0.37208104
4	0xbdcee44e	-0.101021394
5	0xbefaf116	-0.4901206
6	0x3ea5b2df	0.3236303
7	0x3dfb465e	0.12269281
8	0x3e4cbdf5	0.19994338
9	0xbd76937f	-0.060199257
10	0xbf5f53f0	-0.87237453
11	0x3e60eeb3	0.21966057
12	0xbe2a3e8d	-0.16625424
13	0x3e4a9d31	0.19786526
14	0xbef5a03d	-0.47973815
15	0xbbff8754	-0.007798115
16	0xbe8b7268	-0.27235723
17	0x3e859654	0.26091254
18	0xbd4bde75	-0.0497727
19	0xba0f95b8	-0.0005477327
20	0xbd35ec81	-0.044415
21	0x3de7c3e0	0.11316657
22	0x3e3367fe	0.17520139
23	0x3e4b45ee	0.19850895
24	0xbcf69a47	-0.030102862
25	0x3ed68216	0.41896123
26	0xbd0c078f	-0.034186896
27	0x3da39390	0.0798713
28	0xbeab86aa	-0.33501178
29	0xbee24ac7	-0.44197676
30	0x3e53289b	0.20620959
31	0x3ca00063	0.019531434
32	0xbe88ef77	-0.26745197
33	0xbe51014b	-0.2041065
34	0x3f03339c	0.51250625
35	0xbd16b063	-0.03678931
36	0x3d7a7cf1	0.06115431
37	0xbe574b06	-0.21024713
38	0xbe7cd110	-0.24689126
39	0xbed7bdd8	-0.42137027
40	0xbea5edc5	-0.32407966
41	0xbe2e568e	-0.17025205
42	0x3f09970d	0.5374611
43	0xbeb7de10	-0.35911608
44	0x3c645ccf	0.013938143
45	0x3e9a1596	0.30094594
46	0xbed4bf7c	-0.4155234
47	0xbf0904b6	-0.53522813
48	0x3ba7e069	0.0051231873
49	0xbe8fb3ff	-0.28067014
50	0xbeb38d9d	-0.3506898
51	0x3d7fad7f	0.06242132
52	0x3ebc38c6	0.36762065
53	0xbd3559f2	-0.04427523
54	0xbcdd3e6d	-0.027007306
55	0x3ea2d364	0.31801903
56	0xbeb7bf5c	-0.35888183
57	0xbdec70fc	-0.115449876
58	0xbcce5d07	-0.025190843
59	0xbe3e9063	-0.18609767
60	0xbc4b49d6	-0.012407741
61	0xbe8a91ea	-0.2706445
62	0x3e341d07	0.17589198
63	0x3d42a87d	0.047523964
64	0xbea0c6c7	-0.31401655
65	0x3c39d8a3	0.011343154
66	0x3d30c3b8	0.043155402
67	0x3e665896	0.2249473
68	0xbe75bf94	-0.23998863
69	0xbde15339	-0.110022016
70	0x3eae455f	0.340373
71	0x3dab278f	0.083571546
72	0xbdc6e91d	-0.097124316
73	0x3efa8639	0.4893053
74	0x3ee62b23	0.44954786
75	0xbe0cd5aa	-0.13753381
76	0xbe56bfac	-0.20971555
77	0x3dd807df	0.10548376
78	0x3e7f3f80	0.24926567
79	0x3e1f6396	0.15565333
80	0xbe9dd314	-0.30825102
81	0xbf1c6469	-0.61090714
82	0xbebdc98c	-0.3706783
83	0xbeaa6f79	-0.33288172
84	0x3ef91c82	0.48654562
85	0x3f31b8d2	0.6942264
86	0xbe1ab309	-0.15107359
87	0x3ed21849	0.41034153
88	0xbe52802b	-0.20556705
89	0x3de8fc81	0.11376286
90	0xbcc27516	-0.023737472
91	0xbe419289	-0.18903555
92	0x3ed4b7f5	0.41546598
93	0x3e9380e5	0.28809276
94	0x3d4fd6bd	0.0507419
95	0xbe330ae3	-0.17484622
96	0x3e293889	0.16525473
97	0x3e8f2a8a	0.27962142
98	0x3e399e18	0.18126714
99	0xbe4ceabe	-0.20011422
100	0x3e98b92b	0.29828772
101	0xbd57fabd	-0.052729357
102	0x3e41a656	0.18911108
103	0xbdd494ef	-0.10379969
104	0xbeab3da9	-0.3344548
105	0x3e56019f	0.20899056
106	0x3ef11f3f	0.4709415
107	0x3e4f8676	0.20266137
108	0x3dc2e79a	0.09516831
109	0xbd8caf02	-0.068693176
110	0x3ddd0ef7	0.1079387
111	0x3e2b5107	0.16730128
112	0xbe8bd3ba	-0.27309972
113	0xbebd292a	-0.36945468
114	0x3e67f3c4	0.22651583
115	0xbdebb0fd	-0.11508367
116	0xbe45ac7d	-0.1930408
117	0x3e86434e	0.26223224
118	0x3ea85a63	0.3288146
119	0xbe000859	-0.12503184
120	0x3e2f67d0	0.17129445
121	0xbeb2394d	-0.34809342
122	0xbdc06d4a	-0.09395845
123	0x3d266f3a	0.040633418
124	0xbef18d50	-0.47178125
125	0x3dc55139	0.096346326
126	0xbe5850c9	-0.21124567
127	0x3edca063	0.43091115
128	0x3dbf6ae5	0.093465604
129	0xbdfccedc	-0.12344143
130	0x3ef5fa46	0.48042506
131	0x3e53c717	0.20681415
132	0x3e690b84	0.22758299
133	0x3e4eff15	0.20214494
134	0x3ec8bcb2	0.39206463
135	0x3ddd1e20	0.107967615
136	0xbd243ff4	-0.040100053
137	0x3dfecf12	0.12441839
138	0xbe2959bb	-0.16538136
139	0x3dd09d8c	0.101863
140	0x3ec22c5d	0.37924471
141	0x3dde30f0	0.10849178
142	0xbdfb76b1	-0.12278498
143	0x3e0f5d3d	0.14000411
144	0xbd4b3a9b	-0.049616437
145	0x3e95e974	0.29279673
146	0x3e4c7143	0.19965081
147	0x3e9bcb83	0.30428705
148	0x3e15d87b	0.14633362
149	0x3f01bf5d	0.5068262
150	0x3e680dbb	0.22661488
151	0x3dabcd29	0.083887406
152	0x3e1bdab8	0.15220153
153	0xbd8777de	-0.0661466
154	0x3e68e245	0.22742565
155	0xbef1e597	-0.47245476
156	0xbe826825	-0.2547008
157	0xbef38038	-0.4755876
158	0x3e2e3657	0.17012917
159	0x3e7c0a1b	0.2461323
160	0xbeea1884	-0.4572183
161	0x3ed48b02	0.41512305
162	0xbe92a088	-0.286381
163	0xbf0f659c	-0.5601442
164	0x3f38f5c5	0.72250015
165	0x3e1d6135	0.15369113
166	0x3eca2861	0.39483932
167	0x3eba471b	0.36382374
168	0xbedb5ab3	-0.42842636
169	0x3e82a57e	0.25516886
170	0xbf05a32f	-0.52202123
171	0xbf136e68	-0.5759034
172	0xbe6dfffd	-0.23242183
173	0xbe32345e	-0.17402789
174	0xbe8f6ecc	-0.2801422
175	0xbd1cbf27	-0.038268235
176	0x3e3088f9	0.17239751
177	0xbec11862	-0.37713915
178	0x3f3dfb9b	0.74212044
179	0x3e4d1292	0.20026615
180	0xbe885861	-0.26629928
181	0xbdfc33af	-0.12314545
182	0xbe905042	-0.28186232
183	0x3e35b68f	0.17745422
184	0xbce95b05	-0.028485784
185	0x3df14c5c	0.117821425
186	0x3ce4f6f3	0.027949786
187	0xba4ce77d	-0.0007816477
188	0xbda3da81	-0.08000661
189	0xbdc649c0	-0.096820354
190	0xbec0230e	-0.37526745
191	0x3e881048	0.26574922
192	0x3ebca941	0.3684788
193	0x3dc70fa7	0.09719782
194	0xbded2a48	-0.1158033
195	0x3ed5cc98	0.41757655
196	0xbdb1c111	-0.086794026
197	0x3e9e8a56	0.30964917
198	0xbededc0c	-0.43527257
199	0x3d521935	0.05129357
200	0x3d8053d0	0.06265986
201	0xbee8b46e	-0.45450157
202	0xbc35ca22	-0.0110955555
203	0x3ec14afb	0.37752518
204	0xbe6ead9b	-0.23308413
205	0xbe07f023	-0.13275199
206	0x3cbae232	0.022812936
207	0xbb843a82	-0.004035295
208	0x3e3b1dc1	0.18273069
209	0x3e920cf2	0.285255
210	0x3ea660cf	0.32495734
211	0x3c83059b	0.015993884
212	0xbd26da12	-0.04073531
213	0x3c2448aa	0.01002709
214	0xbe5872ee	-0.21137592
215	0xbc0d9d52	-0.008643465
216	0x3e7171b7	0.23578535
217	0x3e9474c7	0.28995344
218	0xbf05f377	-0.5232462
219	0x3ea35cb5	0.31906667
220	0xbea4dc06	-0.32199115
221	0x3bb008f5	0.0053721615
222	0x3e8e4809	0.27789333
223	0x3e1710ac	0.14752454
224	0x3eb40b21	0.3516474
225	0x3e4aa6f2	0.19790247
226	0x3c737ad3	0.014860827
227	0xbe3000ce	-0.17187807
228	0x3d0b590e	0.034020476
229	0x3dfac3ef	0.122444026
230	0x3ec66f01	0.38756564
231	0xbd07da36	-0.033167087
232	0x3ef4d432	0.47818142
233	0xbf15e5ae	-0.5855359
234	0x3e8d4b86	0.27596682
235	0xbe1a6b6d	-0.15080042
236	0xbd819544	-0.06327298
237	0x3e5af349	0.21381868
238	0xbeaa110d	-0.33216134
239	0x3f362080	0.7114334
240	0x3e11ce88	0.14238942
241	0xbe34a973	-0.17642765
242	0x3e2f4b16	0.17118487
243	0xbe50f61d	-0.20406385
244	0x3dbec308	0.09314543
245	0xbf212ce3	-0.62959117
246	0xbec3850b	-0.3818744
247	0xbe9775a9	-0.29581955
248	0xbe37c874	-0.1794756
249	0x3eb7071a	0.35747606
250	0xbf044483	-0.5166704
251	0x3ef934d3	0.48673114
252	0xbe74e9fd	-0.23917384
253	0x3e0defb1	0.13860966
254	0xbe463238	-0.19355094
255	0x3e803b67	0.2504532

model.node_encoder.layers.0.bias f4 [64]
0	0xbe47eea0	-0.19524622
1	0xbd6289a3	-0.05530704
2	0xbc21606d	-0.00984965
3	0x3d0d22d6	0.03445705
4	0x3c97bc01	0.018522264
5	0xbcb47fc3	-0.022033578
6	0x3d126085	0.03573658
7	0xbd7fc72f	-0.062445816
8	0x3d6f62a0	0.058443666
9	0x3d300eea	0.042982973
10	0xbde03730	-0.10948026
11	0xbaefae1b	-0.001828614
12	0xbcb48986	-0.022038233
13	0xbdff95b3	-0.12479725
14	0x3c81a1e7	0.015824271
15	0xbdf38add	-0.118917204
16	0x3df42172	0.11920442
17	0xbdf1d429	-0.118080445
18	0xbc7ee725	-0.015558039
19	0xbc829800	-0.01594162
20	0xbcd8ee81	-0.026480915
21	0xbdb2270b	-0.08698853
22	0xbe01295e	-0.12613437
23	0xbafba982	-0.0019200298
24	0xbce27948	-0.027645722
25	0xbd8d352a	-0.06894906
26	0xbc5baa48	-0.013407297
27	0x3c2dd791	0.010610477
28	0x3b2033ae	0.0024444866
29	0xbda08cba	-0.078393415
30	0xbd88c7a6	-0.06678705
31	0xbd34656f	-0.044042047
32	0xbc07c50d	-0.008286727
33	0xbcb4a63a	-0.02205192
34	0xbe26ded5	-0.16295941
35	0x3d827d0f	0.06371509
36	0xbe0190be	-0.12652871
37	0xba3100fa	-0.00067521597
38	0xbd9bf784	-0.07615569
39	0xbda1301b	-0.078705035
40	0xbd154e0a	-0.036451377
41	0x3d20657e	0.03915929
42	0xbd169fee	-0.036773615
43	0x3b152b7d	0.0022761517
44	0xbd16dd55	-0.036832172
45	0x3b3ebb6a	0.0029103407
46	0xbe028677	-0.12746607
47	0x3d3aafab	0.045577686
48	0xbd97eae7	-0.07417851
49	0x3d353621	0.044241074
50	0xbcc296fe	-0.02375364
51	0xbc580f98	-0.013187312
52	0xbc6e080c	-0.014528286
53	0xbb3c933e	-0.0028774287
54	0xbca70733	-0.020389175
55	0x3d1605ad	0.036626507
56	0x3c72e174	0.01482426
57	0xbcdc3c20	-0.026884139
58	0xbd30d9f9	-0.043176625
59	0x3c7e8ce9	0.015536525
60	0xbdf0f751	-0.11765922
61	0x3cea443b	0.028596988
62	0x3d2ca152	0.042146035
63	0xbdd40dbb	-0.103541814

model.node_encoder.layers.2.weight f4 [32, 64]
0	0xbedac7de	-0.42730612
1	0x3f18692d	0.59535486
2	0xbd5d2dd0	-0.05399877
3	0x3dc708a4	0.09718445
4	0x3ef02014	0.46899474
5	0x3e9928bd	0.29913893
6	0x3d275ef6	0.040862046
7	0x3e87e7a9	0.2654393
8	0xbe450615	-0.19240601
9	0x3ead7604	0.338791
10	0x3ede6a22	0.43440348
11	0x3ede321d	0.43397608
12	0xbe6f6325	-0.23377664
13	0x3de1c8fd	0.110246636
14	0xbe2e8313	-0.17042188
15	0xbe03dd78	-0.12877452
16	0x3f217e6d	0.63083535
17	0xbe6f2ad5	-0.23356183
18	0x3dbb9e55	0.09161059
19	0xbe0261f3	-0.12732677
20	0xbe9ce177	-0.30640766
21	0x3cd9774b	0.026546141
22	0xbeb749f6	-0.35798615
23	0x3e0e8fa5	0.13921984
24	0x3eb4c33d	0.35305205
25	0x3f01c3c3	0.50689334
26	0x3e2cedca	0.16887584
27	0xbe2147c2	-0.1575003
28	0x3ea1ff20	0.31639957
29	0xbe468d94	-0.19389945
30	0x3e824f44	0.254511
31	0x3e13571f	0.14388703
32	0xbcc7fd4a	-0.02441277
33	0x3e4b3dd4	0.19847804
34	0xbe7a007c	-0.24414247
35	0x3d7ae4a2	0.061253197
36	0xbdbddbf9	-0.09270472
37	0x3e898597	0.26859733
38	0x3d5be4d2	0.053685017
39	0xbd86bd50	-0.06579077
40	0x3d0faa21	0.035074357
41	0xbd295bdd	-0.041347373
42	0xbe86b863	-0.2631255
43	0xbd04c2c7	-0.032412317
44	0x3dde0a42	0.108418
45	0xbeb690b0	-0.35657263
46	0xbe5c9b4f	-0.2154362
47	0x3dc7303e	0.09725998
48	0x3deeac63	0.11653974
49	0xbefd77e5	-0.49505535
50	0xbe94db00	-0.29073334
51	0xbefbd8e8	-0.49188924
52	0x3e669e5d	0.22521348
53	0xbe8b4d52	-0.27207428
54	0xbe4413bc	-0.19148153
55	0xbe27c5c3	-0.16384034
56	0x3f015c70	0.50531673
57	0xbea82589	-0.32841137
58	0xbe828d08	-0.25498223
59	0x3ed1e518	0.40995097
60	0xbf08f2a8	-0.53495264
61	0x3e829420	0.25503635
62	0x3e1b903f	0.15191744
63	0x3edaed34	0.42759097
64	0x3e50a6e0	0.20376158
65	0x3d96456e	0.073374614
66	0xbed19616	-0.4093482
67	0x3ddc1f1f	0.107481234
68	0x3da93b0b	0.08263215
69	0xbeec49d4	-0.46150076
70	0xbeed903d	-0.46399108
71	0xbe9056eb	-0.28191313
72	0xbebd9795	-0.3702971
73	0xbdeb544e	-0.11490689
74	0xbe324b50	-0.17411542
75	0xbd593c0b	-0.053035777
76	0xbe84e1d3	-0.2595354
77	0xbe93f87f	-0.28900525
78	0xbdea6df0	-0.1144675
79	0xbe7c6970	-0.24649596
80	0x3d2ca042	0.04214502
81	0x3dea04cf	0.114266984
82	0x3f0c5945	0.54823714
83	0xbe0a6474	-0.13514882
84	0xbeb80664	-0.35942376
85	0xbe9443ed	-0.28958073
86	0xbea8db64	-0.32979882
87	0x3d378b5d	0.04481064
88	0xbed683a9	-0.41897324
89	0x3b9c3c57	0.0047679353
90	0x3e87e18d	0.2653927
91	0x3ec96894	0.393376
92	0x3d377382	0.04478789
93	0x3e984d58	0.2974651
94	0x3cef2a14	0.02919487
95	0x3d39ab1a	0.04532919
96	0xbe052473	-0.13002186
97	0x3e776359	0.24158992
98	0xbdc73add	-0.09728024
99	0xbe53a4a0	-0.20668268
100	0x3d63f339	0.055651877
101	0x3d97e5c3	0.074168704
102	0xbe3f6ea7	-0.18694554
103	0xbdc3e84f	-0.09565794
104	0xbea21fbc	-0.31664836
105	0x3f6a3f1c	0.9150255
106	0xbdc78f23	-0.09744098
107	0xbea4089c	-0.32037818
108	0x3e869b48	0.26290345
109	0xbe74bb25	-0.23899515
110	0xbe3c92ae	-0.18415329
111	0x3d77dfde	0.06051623
112	0x3e96067d	0.29301825
113	0xbe06f429	-0.13179077
114	0x3dd0d0b0	0.10196054
115	0xbe645205	-0.22296913
116	0x3de58e14	0.1120874
117	0xbdcf977a	-0.10136314
118	0xbdd38329	-0.10327751
119	0xbed4bac0	-0.4154873
120	0xbee8cc10	-0.45468187
121	0xbe913a72	-0.28364903
122	0x3f0299cb	0.5101592
123	0xbec4ff6b	-0.38476118
124	0x3e5a3139	0.2130784
125	0xbe8fa031	-0.28051904
126	0x3d5f8c34	0.054577067
127	0xbe54a665	-0.207666
128	0x3e201cf9	0.15636052
129	0x3e5b8a2d	0.21439429
130	0xbea756cb	-0.32683405
131	0xbf088dde	-0.5334147
132	0x3e6c481b	0.23074381
133	0xbeed8e17	-0.46397468
134	0xbdb5bebe	-0.08874272
135	0xbdcdfecd	-0.10058365
136	0xbeccb4ad	-0.39981595
137	0x3dfffb0f	0.124990575
138	0xbef656ec	-0.4811319
139	0x3e41bbd2	0.18919304
140	0xbdaa991b	-0.08329984
141	0x3dd5485a	0.104141906
142	0x3ec29352	0.3800302
143	0xbc71fb0a	-0.014769325
144	0x3e764cd1	0.2405274
145	0xbc654719	-0.013994002
146	0xbded4c07	-0.11586767
147	0xbd1798f5	-0.037011106
148	0x3f094750	0.5362444
149	0xbd19f191	-0.03758389
150	0xbefabef4	-0.4897381
151	0x3e5781d6	0.21045622
152	0xbde39c3e	-0.11113785
153	0x3e83f29c	0.25771034
154	0x3ce922f2	0.028459046
155	0xbe8b4f5d	-0.27208987
156	0xbf05d249	-0.52273995
157	0x3daba1a2	0.083804384
158	0xbdf38a9f	-0.11891674
159	0x3eb1c62a	0.347215
160	0x3f053c72	0.5204536
161	0xbdd45d8a	-0.10369404
162	0xbe17443f	-0.14772128
163	0xbe7dc613	-0.2478259
164	0x3e1b829a	0.1518654
165	0x3e8f54c7	0.27994367
166	0x3e0e0d29	0.13872208
167	0x3cc0997e	0.02351069
168	0xbe2598a0	-0.16171503
169	0xbf0355e6	-0.51302946
170	0xbd4e4f51	-0.05036861
171	0x3e66edbf	0.2255163
172	0xbcba2d9f	-0.022726832
173	0x3e27c0e6	0.16382179
174	0x3e6c6497	0.23085247
175	0xbe4a1251	-0.1973355
176	0x3e78a17c	0.24280351
177	0x3f05c529	0.5225397
178	0xbda7e379	-0.08197684
179	0xbd538e0f	-0.05164915
180	0xbe1dfe25	-0.1542898
181	0xbed3cb11	-0.41365865
182	0xbdf75803	-0.12077334
183	0x3ec6c1f1	0.3881984
184	0x3db002ff	0.085943215
185	0xbe646090	-0.2230246
186	0x3bf93eec	0.007606378
187	0xbec076ed	-0.37590733
188	0x3dce89ea	0.10084899
189	0x3db5b519	0.08872432
190	0x3d8a6895	0.06758229
191	0x3d1f1879	0.0388417
192	0xbe8c6f16	-0.27428502
193	0xbe9a5d1d	-0.30149165
194	0x3b8f581a	0.004374516
195	0x3e87587f	0.26434705
196	0xbdc2ac2c	-0.095054954
197	0xbe75dd7d	-0.24010272
198	0xbda74c50	-0.08168852
199	0x3e73fb86	0.23826417
200	0x3e1b1998	0.15146482
201	0xbddf310d	-0.108980276
202	0xbec603ab	-0.38674673
203	0x3d073e63	0.03301848
204	0x3ec4a1f9	0.38404825
205	0xbe043e99	-0.12914504
206	0xbd0b129a	-0.033953287
207	0xbe4bb0b8	-0.19891632
208	0x3e467860	0.19381857
209	0x3ef3aa36	0.47590798
210	0xbf1b5d7c	-0.6068952
211	0xbe1afe58	-0.15136087
212	0x3e18455d	0.1487021
213	0xbe245513	-0.16048078
214	0xbdfcfe3b	-0.12353178
215	0xbe067fc3	-0.13134675
216	0xbdff87dd	-0.12477086
217	0xbeb8fb81	-0.36129382
218	0xbf00a987	-0.5025868
219	0x3eca834e	0.39553303
220	0x3e819add	0.25313464
221	0xbe9e567b	-0.30925354
222	0xbebe78fc	-0.3720168
223	0xbe4657fc	-0.19369501
224	0x3e93dee8	0.28881
225	0xbc8743d5	-0.016511837
226	0x3d68bf20	0.056822896
227	0x3ef0da3f	0.4704151
228	0xbdf1f204	-0.11813739
229	0x3d70c1f4	0.058778718
230	0x3ecced1a	0.40024644
231	0xbd338041	-0.043823484
232	0x3d98e713	0.07465949
233	0x3ea5fc27	0.3241894
234	0xbea87efb	-0.32909378
235	0xbec7be3d	-0.39012328
236	0xbdef9683	-0.1169863
237	0x3e41e9f4	0.18936902
238	0xbc3f4b5f	-0.011675685
239	0x3cc31a27	0.023816181
240	0xbefb2a56	-0.49055737
241	0x3e2be135	0.16785128
242	0xbe159cc5	-0.14610584
243	0xbe3248d2	-0.17410591
244	0x3e026384	0.12733275
245	0x3e850a30	0.25984335
246	0x3ceea6f6	0.029132348
247	0x3d9ddcbf	0.077081196
248	0x3e9da33a	0.30788594
249	0xbe2c3d32	-0.16820219
250	0xbe7fd8ec	-0.24985093
251	0x3da37def	0.07983004
252	0xbe18450e	-0.14870092
253	0x3edb0439	0.4277666
254	0x3e6c7015	0.23089631
255	0xbf0176dc	-0.5057199

model.node_encoder.layers.2.bias f4 [32]
0	0x3cba52e8	0.02274461
1	0xbc78583d	-0.015157756
2	0xbc02b42e	-0.0079775285
3	0x3ce7ea41	0.028309943
4	0xbd06dbdd	-0.03292452
5	0x3d0d1132	0.034440227
6	0x3d52c4dd	0.051457275
7	0xbca5d099	-0.020241069
8	0x3c66bd51	0.0140832225
9	0xbcefdd24	-0.029280253
10	0x3bde88fe	0.006791233
11	0x3db4cd5f	0.08828234
12	0xbce31991	-0.027722152
13	0x3d6dc76d	0.058051515
14	0x3bb65cc0	0.005565256
15	0xbc0d7c61	-0.008635611
16	0xbdbcdbb9	-0.09221596
17	0x3c81f8b4	0.015865661
18	0xbabb00aa	-0.0014267166
19	0xbd4af412	-0.04954917
20	0xbd5caec3	-0.053877603
21	0x3cb5419f	0.022126017
22	0xbc86293c	-0.016377084
23	0x3d1b19c1	0.037866358
24	0xbcf401ac	-0.029785953
25	0xbcdd2c20	-0.02699858
26	0xbd559094	-0.052139834
27	0xbd0d4f70	-0.034499586
28	0x3b9fc242	0.0048754523
29	0xbd1162d3	-0.035494637
30	0xbd914a7c	-0.07094285
31	0x3d107296	0.035265528

model.state_encoder.layers.0.weight f4 [64, 2]
0	0x3d129ebd	0.035795916
1	0x3d4761bb	0.048677187
2	0xbe2bb25a	-0.16767254
3	0xbcac8871	-0.021061154
4	0xbe138cd4	-0.1440919
5	0xbd94043d	-0.07227371
6	0xbe158468	-0.1460129
7	0x3d7f98e1	0.062401656
8	0xbe69f9be	-0.22849175
9	0xbe52b1c2	-0.20575622
10	0xbca3c008	-0.019989029
11	0x3e2f7e4a	0.17138019
12	0x3e817a97	0.2528884
13	0x3e663465	0.22480924
14	0xbe368892	-0.17825535
15	0x3e7a2870	0.24429488
16	0xbe5084b8	-0.20363128
17	0xbe7a3e8d	-0.24437924
18	0x3e475646	0.19466504
19	0xbe1a1d28	-0.15050185
20	0xb870767c	-5.7330806e-05
21	0x3e5c2a01	0.21500398
22	0xbe0dd6d4	-0.13851482
23	0x3da41822	0.080124155
24	0xbe00ee5d	-0.12590928
25	0x3e7a8d16	0.24467883
26	0xbd78265e	-0.060583465
27	0xbc7446ca	-0.014909456
28	0x3c19bb0a	0.0093829725
29	0x3e2d7b9a	0.16941682
30	0xbd81b1e6	-0.063327596
31	0xbe2a1ec2	-0.16613296
32	0x3e2652c5	0.16242512
33	0xbe56bdc2	-0.20970824
34	0xbd86062e	-0.065441474
35	0x3e7f48e2	0.24930146
36	0x3c540874	0.0129414685
37	0xbe14ecbe	-0.14543435
38	0xbe63acf6	-0.22233948
39	0x3da5042d	0.08057437
40	0xbd6b2065	-0.05740394
41	0x3e023e3c	0.12719053
42	0x3e62701e	0.22113082
43	0xbe214bea	-0.15751615
44	0xbd8d4026	-0.06897001
45	0xbe187f33	-0.14892273
46	0x3d41f59c	0.047353372
47	0xbd02da93	-0.03194673
48	0x3b1d4fc9	0.0024003854
49	0x3ddae40a	0.10688026
50	0x3e5930ad	0.21209975
51	0x3d7b88a0	0.061409593
52	0x3e768756	0.24075064
53	0x3e04a285	0.12952621
54	0xbd310d65	-0.043225665
55	0x3df2a60e	0.11848079
56	0xbd618df4	-0.055067018
57	0xbca283f0	-0.019838303
58	0x3c8e31bc	0.0173577
59	0xbe39f890	-0.18161225
60	0x3e056dfb	0.13030235
61	0xbcb75b41	-0.02238238
62	0xbdcd209e	-0.10015987
63	0xbe1290e3	-0.14313082
64	0x3e5872a6	0.21137485
65	0x3e867374	0.2625996
66	0x3dc3a899	0.09553642
67	0x3e36fcf0	0.17869925
68	0x3cf6e7d6	0.030139845
69	0xbdf2f32e	-0.11862789
70	0xbb6b8ac5	-0.0035940867
71	0x3e643d58	0.22289026
72	0xbe0c8c6b	-0.1372544
73	0xbcd66bce	-0.026174452
74	0x3d7ba108	0.06143287
75	0xbdd6d08a	-0.104889944
76	0xbe8377d3	-0.25677356
77	0xbe30931a	-0.17243615
78	0xbdfb79ac	-0.122790664
79	0x3d717e26	0.058958195
80	0x3c5e3752	0.013562994
81	0xbe7189e2	-0.23587754
82	0x3d924d20	0.07143617
83	0xbe89cd5b	-0.26914486
84	0x3db3ef62	0.08785893
85	0x3e5e1761	0.21688606
86	0xbe5764fe	-0.21034619
87	0x3e3dcb56	0.18534598
88	0x3e569385	0.20954712
89	0xbe0062d1	-0.12537695
90	0xbcf0b9af	-0.029385416
91	0xbcdbb8a5	-0.026821444
92	0xbe0d4a69	-0.13797916
93	0x3e0f8af0	0.14017844
94	0xbd6ef223	-0.05833639
95	0x3e6e66e1	0.23281433
96	0x3e4eb6bc	0.20186895
97	0xbc3df283	-0.011593464
98	0x3e0e2608	0.13881695
99	0xbe806d4a	-0.2508338
100	0xbc9418cc	-0.01807823
101	0xbdb3b746	-0.08775191
102	0xbd06f137	-0.032944884
103	0x3e35881a	0.177277
104	0xbd81cd3e	-0.06337975
105	0xbdc4844c	-0.09595546
106	0x3d520b94	0.051280573
107	0xbc35014a	-0.011047671
108	0x3ddd6764	0.10810736
109	0xbe810841	-0.2520161
110	0xbe6a6d08	-0.22893155
111	0xbe2512e1	-0.16120483
112	0x3da2980b	0.07939156
113	0x3e643b4c	0.22288245
114	0x3df84e56	0.121243164
115	0x3dfbb2c6	0.12289958
116	0x3d8c5be8	0.06853467
117	0x3d4017f1	0.046897832
118	0x3e277860	0.16354513
119	0xbe3ba282	-0.1832371
120	0x3e35d343	0.17756371
121	0x3db3b588	0.08774859
122	0x3caf0ea8	0.021369293
123	0xbe89248f	-0.26785704
124	0xbe82c9d8	-0.2554462
125	0xbdbd88c9	-0.09254605
126	0x3e0f9be3	0.1402431
127	0x3e411c1c	0.18858379

model.state_encoder.layers.0.bias f4 [64]
0	0xb76f570d	-1.4265778e-05
1	0x35211932	6.001384e-07
2	0xb3d36bec	-9.845084e-08
3	0xb4ebdc18	-4.39323e-07
4	0x32c8d54d	2.3380062e-08
5	0xb5a2aa2b	-1.2119466e-06
6	0xb5c75d47	-1.4853803e-06
7	0x3535856e	6.762192e-07
8	0xb2ca7031	-2.3566914e-08
9	0xb7163e55	-8.9552095e-06
10	0x388133f8	6.160879e-05
11	0xb74c8b01	-1.2191712e-05
12	0x3526d2f1	6.214678e-07
13	0xb44f56b0	-1.9309914e-07
14	0x341934f8	1.4268505e-07
15	0x36f65082	7.3407437e-06
16	0xb5b4e194	-1.3476697e-06
17	0x37cd70c4	2.4490415e-05
18	0xb782f5c5	-1.5611653e-05
19	0x350eb1e9	5.3158016e-07
20	0xb320667b	-3.734611e-08
21	0xb4285963	-1.5678738e-07
22	0x3943a234	0.00018657075
23	0xb5dacf65	-1.6302625e-06
24	0x33f2575d	1.12848944e-07
25	0x33176d2b	3.5256715e-08
26	0xb62b4b41	-2.552479e-06
27	0x34203e8c	1.4923916e-07
28	0x352fc02a	6.5472216e-07
29	0xb6285132	-2.5081213e-06
30	0xb3169477	-3.5059625e-08
31	0x3843fd86	4.6727735e-05
32	0x35c9980d	1.501992e-06
33	0xb6480c47	-2.9809469e-06
34	0xb699fbbb	-4.5890606e-06
35	0xb7c08f12	-2.2954806e-05
36	0xb54e78c8	-7.691674e-07
37	0x33a70442	7.777318e-08
38	0x33b1c6f6	8.2783956e-08
39	0xb2a7f27c	-1.9551628e-08
40	0x396e0895	0.00022700646
41	0x3469a853	2.1761052e-07
42	0x37f76f4f	2.9496527e-05
43	0xb412909f	-1.3649922e-07
44	0x3601ad39	1.9323327e-06
45	0xb4c7af1e	-3.7194053e-07
46	0x395f7413	0.00021310178
47	0xb3905359	-6.7206834e-08
48	0x36a45132	4.8970333e-06
49	0x32ce434d	2.4012161e-08
50	0x35236c26	6.087961e-07
51	0xb4aa1b9b	-3.1685053e-07
52	0x33c02914	8.948169e-08
53	0x348b3f8b	2.5937e-07
54	0x34d141de	3.8977208e-07
55	0xb3d21c38	-9.78402e-08
56	0x375c6a89	1.31378265e-05
57	0x365d0ac0	3.2937824e-06
58	0x38acf82f	8.247827e-05
59	0x342f154d	1.6305894e-07
60	0x36cfcd9d	6.1930173e-06
61	0xb45efae8	-2.076664e-07
62	0xb4168d80	-1.4021316e-07
63	0xb482f100	-2.4389738e-07
